model200.pth (torch, 322733 bytes, 14 tensors)

module.conv1.weight f4 [32, 3, 3, 3]
0	0x3c93470f	0.01797822
1	0x3b869309	0.0041068834
2	0xbc81adf7	-0.015830023
3	0xbc8fa149	-0.017532961
4	0xbbe80c3f	-0.007081538
5	0xba79c800	-0.00095283985
6	0xbcb3be71	-0.021941395
7	0x3be03b69	0.0068430197
8	0x3c984c85	0.018591175
9	0xbd172793	-0.036902975
10	0xbc6b2d8b	-0.01435412
11	0xbd56bacf	-0.05242425
12	0xbcac0633	-0.02099905
13	0x3cb8b7c2	0.02254856
14	0x3b8e66e5	0.004345762
15	0xbcda1204	-0.026619919
16	0xbcda85e8	-0.02667518
17	0xbd1a778f	-0.037711676
18	0xbd2aa77e	-0.04166364
19	0xbd3947ca	-0.04523448
20	0xbdc3ee7f	-0.09566974
21	0xbcbb505f	-0.022865472
22	0xbc336fa1	-0.010951907
23	0xbd230bd2	-0.039806195
24	0xbda930df	-0.082612745
25	0xbca310ef	-0.019905536
26	0xbd4085da	-0.04700265
27	0x3b85e575	0.0040861913
28	0x3b13e252	0.0022565317
29	0xbbb29ee3	-0.0054510697
30	0x3c850a55	0.016240278
31	0x3cf0c197	0.029389186
32	0x3ba19d06	0.0049320487
33	0x3ca71517	0.020395799
34	0x3c1f67f6	0.009729376
35	0x3c2b5359	0.010456883
36	0x3c5d299b	0.013498689
37	0x3ca41993	0.020031726
38	0x3ceb7eee	0.028747048
39	0x3c6b6a1b	0.014368559
40	0x39ba80bf	0.00035572608
41	0x3c8572be	0.016290065
42	0x3c9eb2f1	0.019372435
43	0x3d3ba500	0.045811653
44	0x3ca653f2	0.0203037
45	0x3cbcc691	0.023043903
46	0x3c896020	0.016769469
47	0x3c2403a1	0.010010631
48	0x3c343c4e	0.011000706
49	0x3bc17117	0.005903374
50	0x3ba44f79	0.0050143567
51	0x3c4c0225	0.012451683
52	0xbb1f7e12	-0.0024336618
53	0x3b9ca31a	0.0047801854
54	0xbd00a27d	-0.03140496
55	0xbd575804	-0.052574173
56	0xbd977b0d	-0.07396517
57	0xbd27f89c	-0.041008577
58	0xbcf1f53c	-0.029535882
59	0xbc93a3f3	-0.018022513
60	0xbd14f733	-0.03636856
61	0xbccd5f04	-0.025069721
62	0xbc5510c3	-0.013004485
63	0xbcfdd052	-0.030983124
64	0xbc9312b7	-0.01795326
65	0xbd63faf5	-0.055659253
66	0xbce49c0c	-0.02790644
67	0x3bf9c601	0.007622481
68	0xbc8cec27	-0.01720245
69	0xbd55d073	-0.052200746
70	0xba5c6894	-0.00084079173
71	0xbbdce567	-0.006741214
72	0x3bbb2ec3	0.0057123615
73	0x3c9bef5b	0.019035032
74	0xbca9b301	-0.020715239
75	0xbc0c49d9	-0.0085625285
76	0xbc8608fe	-0.01636171
77	0xbc236e60	-0.009975046
78	0xbcaf8da1	-0.021429839
79	0xbc5525d4	-0.013009507
80	0x3c20393d	0.009779272
81	0xba6dfef7	-0.0009078825
82	0xba92c6a5	-0.0011198117
83	0xba95b23c	-0.0011420916
84	0xba744382	-0.0009317921
85	0xba9e8c31	-0.0012096224
86	0xba96b588	-0.0011498192
87	0xba61f920	-0.00086201914
88	0xba87bcc0	-0.0010355935
89	0xba8c1836	-0.0010688368
90	0xbafc0ba2	-0.0019229541
91	0xbb02682d	-0.001989852
92	0xbb09d13c	-0.0021029254
93	0xbb009a6a	-0.0019623288
94	0xbb051d9a	-0.0020311833
95	0xbb0d9668	-0.0021604542
96	0xbb023f6a	-0.0019874224
97	0xbb09b7c9	-0.0021014086
98	0xbb12e5b2	-0.002241474
99	0xbb8bc554	-0.0042654667
100	0xbb9149c2	-0.0044338414
101	0xbb949d7e	-0.004535376
102	0xbb9310b7	-0.0044880765
103	0xbb959500	-0.0045648813
104	0xbb98dc78	-0.004664954
105	0xbb9420bc	-0.004520504
106	0xbb9968cd	-0.0046816827
107	0xbb9d3e27	-0.004798669
108	0x3db8ed1d	0.09029601
109	0x3d8589b8	0.065204084
110	0x3dca9b64	0.0989292
111	0x3ada719c	0.0016665938
112	0xbcf35804	-0.029705055
113	0xbc75d26c	-0.015003782
114	0xbaa2fdf5	-0.0012435304
115	0x3b4025fc	0.0029319515
116	0xbc0d4e06	-0.008624559
117	0x3d9c46ef	0.07630717
118	0x3cd7c47a	0.026338805
119	0x3d3c8baf	0.04603165
120	0xbd1923ae	-0.037387542
121	0xbc149fd2	-0.009071307
122	0xbcff79b5	-0.031185964
123	0xbc0e29c5	-0.008676951
124	0xbc92b621	-0.017909111
125	0xbcfca8db	-0.030842235
126	0x3ceb1507	0.02869655
127	0x3cded983	0.027203327
128	0x3cca28aa	0.024677593
129	0x3c3f9430	0.0116930455
130	0xbd064bc8	-0.032787114
131	0xbcccb46c	-0.024988376
132	0xbc08e0d8	-0.008354388
133	0xbb6ca4dc	-0.0036109006
134	0xbd1f50e8	-0.038895518
135	0x8000e4af	-8.2036e-41
136	0x0000617e	3.4974e-41
137	0x80012885	-1.06371e-40
138	0x0000ef80	8.5916e-41
139	0x000084ac	4.7594e-41
140	0x8001060e	-9.4008e-41
141	0x80012045	-1.03412e-40
142	0x800003b5	-1.33e-42
143	0x0001cc4c	1.65123e-40
144	0x80005506	-3.05e-41
145	0x00003ad8	2.1109e-41
146	0x000101fd	9.2549e-41
147	0x8000283b	-1.4432e-41
148	0x80006023	-3.4487e-41
149	0x000095af	5.3696e-41
150	0x80001a42	-9.42e-42
151	0x0000e50a	8.2164e-41
152	0x8000832b	-4.7054e-41
153	0x80007dee	-4.5175e-41
154	0x80004a6b	-2.6696e-41
155	0x00001c24	1.0095e-41
156	0x00010d4a	9.6603e-41
157	0x80011e06	-1.02606e-40
158	0x00005948	3.2028e-41
159	0x80000a4e	-3.697e-42
160	0x0000f796	8.8817e-41
161	0x000057f3	3.155e-41
162	0x3b14702b	0.0022649865
163	0xbc369771	-0.011144505
164	0xbbf8a3a4	-0.007587867
165	0xbbfc79f2	-0.0077049667
166	0xbc5dc28f	-0.013535156
167	0xbbff8580	-0.007797897
168	0xbab58994	-0.0013850206
169	0xbc9a3a33	-0.01882658
170	0xbc3c2b06	-0.011484867
171	0x3ac609d5	0.0015109131
172	0xbc12e6ef	-0.008966192
173	0xbc2807c8	-0.010255761
174	0xbab647c2	-0.0013906884
175	0xbb2fe11f	-0.0026837063
176	0xbc68e5c1	-0.014214934
177	0xbb969e96	-0.0045965416
178	0xbc7911f1	-0.0152020315
179	0xbc4e1ba7	-0.012579835
180	0xbc97cc2e	-0.018529978
181	0xbc648f8a	-0.013950238
182	0xbc87dd3e	-0.016584989
183	0xbae51dbc	-0.0017480175
184	0xbb98be74	-0.0046613757
185	0xbbb6ec5d	-0.005582376
186	0x3cb9c07d	0.022674793
187	0x3c72d2e5	0.014820789
188	0x3bb66527	0.0055662575
189	0x3d1bce31	0.038038436
190	0x3d39a2b3	0.045321178
191	0x3cd09391	0.02546099
192	0xbc9e5ea9	-0.019332247
193	0xbd18e867	-0.03733101
194	0xbd1bc70c	-0.038031623
195	0xbd023310	-0.03178698
196	0xbbb1fb6a	-0.005431582
197	0x3c3bfb25	0.011473452
198	0x3d4d9326	0.05018916
199	0x3d2d2f72	0.042281576
200	0x3d20e7f6	0.039283715
201	0x3bc63b85	0.0060495757
202	0xbd454f62	-0.04817141
203	0xbd69f3d4	-0.0571173
204	0xbcacd0b5	-0.021095613
205	0xbbd0a953	-0.0063678413
206	0x3b7cd1c8	0.0038577188
207	0x3d644f9f	0.055739995
208	0x3d618247	0.055055883
209	0x3d35c847	0.044380452
210	0xbc23dbc6	-0.010001129
211	0xbbbe9079	-0.0058155623
212	0xbc37b497	-0.01121249
213	0xbd8bde97	-0.06829565
214	0xbd792f09	-0.06083587
215	0xbc4dda01	-0.012564183
216	0xbd703329	-0.05864254
217	0x3b04c34c	0.0020258008
218	0x3de7ae34	0.113125235
219	0xba06f888	-0.00051487284
220	0xbd43ba3c	-0.04778503
221	0x3d5de293	0.054171156
222	0xbcb067a3	-0.021533793
223	0xbc0b16c5	-0.008489315
224	0x3e14d232	0.14533308
225	0xbd6b00ab	-0.057373684
226	0xbd0558e7	-0.032555487
227	0x3dd0919c	0.10184023
228	0xbc41f80a	-0.011838922
229	0xbd3c86eb	-0.046027105
230	0x3d6baa34	0.057535365
231	0xbce6a42d	-0.028154457
232	0xbc264373	-0.010147917
233	0x3def63e2	0.11688973
234	0xbd9360c3	-0.0719619
235	0xbcaaa9f8	-0.020833
236	0x3d995f6c	0.074889034
237	0x3c55b3f1	0.01304339
238	0xbd4a62a1	-0.049410466
239	0x3c2d5033	0.010578203
240	0xbd2805d3	-0.04102118
241	0xbceedea7	-0.029158903
242	0x3dd367c3	0.10322525
243	0x8000fb47	-9.0141e-41
244	0x80001a40	-9.417e-42
245	0x800070d0	-4.047e-41
246	0x0000be25	6.8211e-41
247	0x000014f7	7.521e-42
248	0x0000516d	2.921e-41
249	0x0000114a	6.202e-42
250	0x800102ff	-9.291e-41
251	0x800133db	-1.10438e-40
252	0x00001bac	9.927e-42
253	0x00008753	4.8545e-41
254	0x00015dfb	1.2555e-40
255	0x00013d6b	1.13868e-40

module.conv1.bias f4 [32]
0	0x3db1604a	0.08660944
1	0x3e25e53f	0.16200732
2	0x3de96fb5	0.113982596
3	0xbbfaaacd	-0.0076497556
4	0x3b3414ad	0.0027478144
5	0x8e456cd9	-2.4334533e-30
6	0x3e290b3c	0.16508192
7	0x3c16fa29	0.009214916
8	0x3c756e8e	0.014979972
9	0x9001ca77	-2.5596737e-29
10	0x3e24f3a5	0.16108568
11	0x3e3c48be	0.18387124
12	0x3deec580	0.11658764
13	0x3daf582e	0.08561741
14	0x3e3df86a	0.18551794
15	0x9bb28faa	-2.954047e-22
16	0x3e1de2d0	0.15418553
17	0xbb6ec95a	-0.0036435933
18	0x3acdd270	0.0015702974
19	0x9f92a0a6	-6.2099176e-20
20	0x3be635a3	0.007025437
21	0x9ba9fbed	-2.8121508e-22
22	0xb1246fb7	-2.3928644e-09
23	0x3e424663	0.18972163
24	0xbd82a91f	-0.063799135
25	0x3d73215b	0.059357982
26	0x3e4e4b1e	0.20145842
27	0x3dab9405	0.08377842
28	0x985b2419	-2.8323311e-24
29	0x3d8dbc3c	0.069206685
30	0x3e175a65	0.14780577
31	0x3d2f6764	0.04282321

module.conv2.weight f4 [32, 32, 3, 3]
0	0xb9bcbda4	-0.00035999448
1	0xb9a56da9	-0.00031552956
2	0xb99a7824	-0.0002946268
3	0xb9b0d68c	-0.00033729186
4	0xb997410b	-0.00028849425
5	0xb996359b	-0.0002865017
6	0xb9cde9b4	-0.0003927477
7	0xb9b14eb7	-0.00033818718
8	0xb9a80a96	-0.00032051344
9	0xbb5ea500	-0.003397286
10	0xbb5e9f65	-0.0033969518
11	0xbb618bd1	-0.0034415612
12	0xbb5a4781	-0.003330678
13	0xbb5ac041	-0.0033378752
14	0xbb5dee45	-0.0033863944
15	0xbb5fb4f7	-0.0034134963
16	0xbb603270	-0.003420975
17	0xbb635cf8	-0.0034692865
18	0xb9d20fa0	-0.00040065963
19	0xb9b27ada	-0.00034042337
20	0xb9a2d650	-0.00031058723
21	0xb9c1aa18	-0.00036938558
22	0xb9a64c51	-0.00031718847
23	0xb9abef9e	-0.0003279419
24	0xb9d72f56	-0.00041043264
25	0xb9ba951b	-0.00035587777
26	0xb9b3414f	-0.000341902
27	0x80003e1b	-2.2279e-41
28	0x0000eec2	8.565e-41
29	0x000045e9	2.5079e-41
30	0x80000090	-2.02e-43
31	0x000008dd	3.18e-42
32	0x8000cb23	-7.2872e-41
33	0x0001dd8b	1.7131e-40
34	0x80006514	-3.626e-41
35	0x0000bbc0	6.7352e-41
36	0xbaf7cb6b	-0.0018905228
37	0xbaf81a54	-0.0018928745
38	0xbafe2468	-0.0019389512
39	0xbae4304c	-0.0017409413
40	0xbae84e76	-0.0017723578
41	0xbaf104de	-0.0018388291
42	0xbadb5dc4	-0.0016736318
43	0xbae02aff	-0.0017102658
44	0xbaead8be	-0.0017917377
45	0x00011163	9.8073e-41
46	0x8000f871	-8.9124e-41
47	0x8000b870	-6.6164e-41
48	0x0000d34e	7.5802e-41
49	0x80005b96	-3.2855e-41
50	0x8000feb8	-9.1376e-41
51	0x800014f0	-7.511e-42
52	0x00007bbb	4.4386e-41
53	0x00012369	1.04538e-40
54	0xbacb4054	-0.0015506842
55	0xbac1536a	-0.0014749591
56	0xbab96755	-0.0014145175
57	0xbac4b634	-0.0015007914
58	0xbab4d054	-0.0013794997
59	0xbab30cc7	-0.0013660424
60	0xbad3f4f0	-0.001617102
61	0xbac447a7	-0.0014974967
62	0xbac04b37	-0.0014670853
63	0xb7702bb9	-1.4315295e-05
64	0xb76001dc	-1.3351873e-05
65	0xb755aa49	-1.2735437e-05
66	0xb6e2f8ec	-6.764303e-06
67	0xb6e6e8b4	-6.8816244e-06
68	0xb6e39c7f	-6.7833457e-06
69	0xb69906fb	-4.560568e-06
70	0xb6a0404a	-4.775856e-06
71	0xb699699c	-4.57205e-06
72	0xbb2815e1	-0.0025647806
73	0xbb3215ce	-0.002717364
74	0xbb39810e	-0.0028305682
75	0xbb2a5d88	-0.002599569
76	0xbb34f914	-0.0027614282
77	0xbb3b4d96	-0.002858018
78	0xbb2d6d8b	-0.0026462998
79	0xbb37df96	-0.0028056852
80	0xbb3ebd9b	-0.0029104713
81	0x8001421c	-1.15551e-40
82	0x0000b0c2	6.3409e-41
83	0x0001078d	9.4544e-41
84	0x0000392f	2.0514e-41
85	0x80014140	-1.15243e-40
86	0x0000deb7	7.9895e-41
87	0x0001330a	1.10145e-40
88	0x00016e79	1.31466e-40
89	0x00003735	1.9805e-41
90	0xbad16c90	-0.0015977789
91	0xbac2f060	-0.0014872663
92	0xbabfbc12	-0.0014628193
93	0xbac7e9db	-0.001525219
94	0xbaba8993	-0.0014231674
95	0xbab73118	-0.0013976423
96	0xbad60ba0	-0.0016330369
97	0xbac8f94d	-0.0015333086
98	0xbac493e7	-0.0014997692
99	0xbb1a15cb	-0.0023511525
100	0xbb130ecf	-0.0022439247
101	0xbb12edcf	-0.0022419577
102	0xbb133309	-0.002246084
103	0xbb0e3d5b	-0.0021704051
104	0xbb0e0579	-0.0021670742
105	0xbb1b169b	-0.0023664597
106	0xbb1739ac	-0.0023075147
107	0xbb157dd2	-0.002281059
108	0xbabdaa37	-0.0014470284
109	0xbab0e525	-0.0013496025
110	0xbab14efa	-0.0013527565
111	0xbab8b6a2	-0.0014092515
112	0xbaad06f6	-0.0013200927
113	0xbaab16f4	-0.0013053105
114	0xbac17040	-0.0014758185
115	0xbab6eff6	-0.0013957012
116	0xbab4a1a4	-0.0013781083
117	0xbacdcbb9	-0.0015700973
118	0xbac7ab91	-0.0015233626
119	0xbaca9e21	-0.0015458503
120	0xbac54753	-0.0015051164
121	0xbac065f1	-0.0014678818
122	0xbac52cab	-0.0015043219
123	0xbacda90d	-0.001569064
124	0xbac8e56c	-0.0015327162
125	0xbad30f9e	-0.0016102677
126	0xbae18755	-0.001720647
127	0xbad39e37	-0.0016145174
128	0xbacceeee	-0.0015635171
129	0xbad99601	-0.0016600491
130	0xbac9fec3	-0.0015411008
131	0xbac4073c	-0.0014955769
132	0xbae92c10	-0.0017789621
133	0xbad9b995	-0.0016611094
134	0xbad36a7e	-0.001612976
135	0x8000cabe	-7.273e-41
136	0x0000ab3c	6.1427e-41
137	0x00013b34	1.13074e-40
138	0x8000d8ce	-7.7775e-41
139	0x000101c0	9.2463e-41
140	0x00007df6	4.5186e-41
141	0x000039af	2.0693e-41
142	0x8000043e	-1.522e-42
143	0x80014ff7	-1.20521e-40
144	0xbb1afd6a	-0.0023649582
145	0xbb161947	-0.002290325
146	0xbb14f2b8	-0.002272768
147	0xbb19d49d	-0.0023472675
148	0xbb1185c3	-0.0022204972
149	0xbb109cec	-0.002206619
150	0xbb1d7b98	-0.0024029966
151	0xbb187b83	-0.0023266978
152	0xbb17231e	-0.0023061703
153	0xbb24c33c	-0.0025140783
154	0xbb272382	-0.0025503342
155	0xbb2e3daa	-0.0026587048
156	0xbb27c307	-0.0025598423
157	0xbb2c6945	-0.0026307863
158	0xbb3079f4	-0.0026928158
159	0xbb309b09	-0.0026947877
160	0xbb368994	-0.0027853
161	0xbb3b3407	-0.0028564946
162	0xb397d196	-7.069609e-08
163	0xb35ef565	-5.1911588e-08
164	0xb326af21	-3.8809166e-08
165	0xb3457a0b	-4.5978634e-08
166	0xb3176ee7	-3.5258292e-08
167	0xb2e970a2	-2.717599e-08
168	0xb350e9a9	-4.8641287e-08
169	0xb325a228	-3.8564536e-08
170	0xb2fde3cb	-2.9556665e-08
171	0x8000b911	-6.639e-41
172	0x0000a858	6.039e-41
173	0x80004b1a	-2.6941e-41
174	0x0000c83b	7.1829e-41
175	0x0000b9d9	6.667e-41
176	0x80002cc6	-1.6062e-41
177	0x8000a5cd	-5.9478e-41
178	0x00018513	1.39574e-40
179	0x0000f0c7	8.6375e-41
180	0xbb1b8dae	-0.002373557
181	0xbb1dbb88	-0.0024068076
182	0xbb22deb2	-0.0024851975
183	0xbb197140	-0.002341345
184	0xbb1c4984	-0.002384753
185	0xbb21dd82	-0.002469868
186	0xbb197134	-0.0023413422
187	0xbb1d069a	-0.0023960234
188	0xbb233472	-0.0024903086
189	0x80010d3a	-9.658e-41
190	0x0000338e	1.8494e-41
191	0x00004cdb	2.757e-41
192	0x0000cc34	7.3254e-41
193	0x00003d0f	2.1904e-41
194	0x00010eaa	9.7096e-41
195	0x800085d0	-4.8003e-41
196	0x8001c436	-1.62223e-40
197	0x0000f238	8.6892e-41
198	0x800213b9	-1.90746e-40
199	0x80006633	-3.6662e-41
200	0x800139ca	-1.12566e-40
201	0x8000f85d	-8.9096e-41
202	0x80006169	-3.4944e-41
203	0x800093d5	-5.3032e-41
204	0x0000bcb0	6.7688e-41
205	0x80017133	-1.32444e-40
206	0x00012d96	1.08189e-40
207	0xbae49349	-0.0017438914
208	0xbadf49e3	-0.001703557
209	0xbad4b5c5	-0.0016228488
210	0xbadd40b0	-0.001688024
211	0xbad05bcf	-0.0015896502
212	0xbacc6476	-0.0015593905
213	0xbaebe39f	-0.0017996914
214	0xbadff3c8	-0.0017086202
215	0xbadaf5b7	-0.0016705309
216	0xaa5c4027	-1.9562183e-13
217	0x2a0bbe48	1.2411697e-13
218	0x298846b0	6.0518756e-14
219	0xaa5dcddd	-1.9700166e-13
220	0x29a7b255	7.4472255e-14
221	0x2897cdd0	1.6853625e-14
222	0xaabb3c2c	-3.3259626e-13
223	0x2888297c	1.5117024e-14
224	0x295c5ebe	4.893199e-14
225	0xb8162bfe	-3.5803758e-05
226	0xb8060529	-3.1952895e-05
227	0xb7f59248	-2.9274393e-05
228	0xb8134e40	-3.5120407e-05
229	0xb7f6d17d	-2.9423036e-05
230	0xb7f453fb	-2.9126173e-05
231	0xb821cd89	-3.857681e-05
232	0xb818da41	-3.644289e-05
233	0xb80dde15	-3.382385e-05
234	0xbb3ffd35	-0.002929521
235	0xbb3db7ce	-0.0028948667
236	0xbb3d9fd4	-0.0028934376
237	0xbb3b0b3e	-0.0028540636
238	0xbb37d9a0	-0.0028053299
239	0xbb392dea	-0.0028256127
240	0xbb420242	-0.0029603397
241	0xbb3eb9af	-0.0029102375
242	0xbb3fb1de	-0.0029250304
243	0xb998f19f	-0.0002917172
244	0xb96d1b56	-0.00022612265
245	0xb96b86ed	-0.0002246161
246	0xb9850848	-0.00025373907
247	0xb95a8851	-0.00020840882
248	0xb937b66a	-0.00017520195
249	0xb9ab1ee9	-0.00032638691
250	0xb986f539	-0.00025741177
251	0xb97030ea	-0.00022906406
252	0x0000b546	6.5029e-41
253	0x8001135e	-9.8783e-41
254	0x80007803	-4.3052e-41
255	0x000048dd	2.6138e-41

module.conv2.bias f4 [32]
0	0xbb4791ce	-0.0030451897
1	0xbc4019fa	-0.011724943
2	0x3c021e2c	0.007941764
3	0x3c3f0447	0.011658735
4	0x3d1b667d	0.037939537
5	0x3cc385de	0.023867544
6	0x3d802473	0.06256952
7	0xbc996c3f	-0.018728374
8	0x3d2e5832	0.04256458
9	0x3d1b4dde	0.037916057
10	0x3cb320aa	0.021866161
11	0xb1cf815a	-6.0391985e-09
12	0x3d179e65	0.03701629
13	0x3d657719	0.056021784
14	0xbd0ae98d	-0.033914138
15	0x3c57b655	0.01316603
16	0x3c879ca5	0.016554186
17	0xa9017b6a	-2.87508e-14
18	0x3c01416c	0.007889133
19	0xa8de0362	-2.4648418e-14
20	0xbce46b3c	-0.027883165
21	0x9f8accae	-5.878389e-20
22	0xbb0d8dd4	-0.0021599429
23	0xbc2a7273	-0.010403263
24	0xbc7ce9d3	-0.015436607
25	0x3cb332a3	0.021874731
26	0x3c411936	0.011785796
27	0x3c50a084	0.012733582
28	0x3ca01fcb	0.01954641
29	0x3d5b8e80	0.053602695
30	0x3d2cc469	0.0421795
31	0xba874c8c	-0.0010322495

module.conv3.weight f4 [32, 32, 3, 3]
0	0xb93cf998	-0.00018022058
1	0xb8d2acb7	-0.00010045751
2	0x3865f5b8	5.4826698e-05
3	0xb94d711d	-0.00019592461
4	0xb9015104	-0.0001233258
5	0x37d7fef9	2.5748728e-05
6	0xb857db5a	-5.146428e-05
7	0x37a8221b	2.0043042e-05
8	0x39271859	0.00015935431
9	0xbd1aee6b	-0.03782503
10	0x3c4a27f0	0.012338623
11	0x3d862c24	0.06551388
12	0xbca6408b	-0.020294448
13	0x3cbba9be	0.022908088
14	0x3c9f8401	0.019472124
15	0x3d64b0b7	0.05583259
16	0x3c903d56	0.017607372
17	0x3c2a2252	0.010384159
18	0x3d52f37c	0.051501736
19	0x3c39cd34	0.011340428
20	0x3d113457	0.035450306
21	0x3d1cb3b2	0.03825731
22	0xbb93135b	-0.0044883913
23	0xbbc91783	-0.006136836
24	0x3caaf35f	0.020868002
25	0xbc381c8f	-0.011237278
26	0xbcadd244	-0.021218427
27	0xbcf7a028	-0.030227736
28	0x3c0d6fbe	0.008632598
29	0x3c5963bc	0.013268407
30	0xbb505268	-0.00317874
31	0xbaeae161	-0.0017919951
32	0x3c222665	0.009896849
33	0xbd4f11a3	-0.05055393
34	0xbcf27c96	-0.029600423
35	0xbc0cc385	-0.008591537
36	0xbccba7e6	-0.024860334
37	0xbcb7c8c8	-0.022434607
38	0xbce7f87b	-0.028316727
39	0xbc02c695	-0.007981916
40	0xbbf77513	-0.007551798
41	0xbcb5df32	-0.022201154
42	0xbac8172c	-0.0015265695
43	0xbb1de369	-0.0024091846
44	0xbc932af6	-0.017964821
45	0xbc95a1d8	-0.01826565
46	0xbb9a5aca	-0.00471053
47	0x3d80d943	0.062914394
48	0xbb0cc45e	-0.0021479349
49	0x3bda9d0a	0.0066715525
50	0x3c9509bd	0.01819312
51	0xbc3c948a	-0.011510024
52	0xbb3b58bd	-0.0028586828
53	0x3cb8c138	0.022553071
54	0xbc0a44ce	-0.008439256
55	0x3c78611f	0.015159874
56	0x3d564b63	0.052317988
57	0xbcc5b633	-0.02413473
58	0xbbd5fb1e	-0.0065301796
59	0x3c947dc1	0.01812637
60	0xbd4647ac	-0.048408195
61	0xbcaff1c1	-0.021477582
62	0x3a931407	0.0011221179
63	0x3c8aa143	0.016922599
64	0x3b6c13f4	0.0036022635
65	0xbc9f1778	-0.01942037
66	0x3cfc0a4a	0.030766625
67	0x3c0c0da8	0.008548178
68	0x3b7d4e6e	0.0038651484
69	0x3d72d7d6	0.05928787
70	0x3d0f1ae0	0.03493774
71	0x3b70869e	0.0036701332
72	0x3b823c04	0.0039744396
73	0x3ce60bd3	0.02808181
74	0x3d9d8bb2	0.076926604
75	0xbc7e1652	-0.015508251
76	0xb9a11896	-0.0003072663
77	0x3cb7b9e6	0.02242751
78	0xbcdacb2b	-0.026708206
79	0x3c95e7b4	0.018298961
80	0x3cea38c7	0.028591527
81	0xbc89c76b	-0.016818723
82	0xba5e0cef	-0.0008470555
83	0x3bf0e946	0.007352027
84	0xbc13c148	-0.00901825
85	0xbd03b609	-0.032156024
86	0x3c77babd	0.0151202055
87	0xba2f89d3	-0.00066962576
88	0xbc97e9ff	-0.018544195
89	0x375036b7	1.2410505e-05
90	0xbcfccf82	-0.030860666
91	0xbc159e00	-0.009131908
92	0x3d456471	0.04819149
93	0xbc390ed0	-0.0112950355
94	0x3ce1ffb1	0.027587743
95	0x3c546b9f	0.012965112
96	0xbc3d425f	-0.011551469
97	0x3cb89941	0.022534015
98	0x3c2c4b07	0.010515935
99	0xb191b84d	-4.241008e-09
100	0xb19bce42	-4.5345425e-09
101	0xb1a88806	-4.9049076e-09
102	0xb18703ef	-3.9294643e-09
103	0xb191a111	-4.2383665e-09
104	0xb1899abf	-4.0048174e-09
105	0xb162241f	-3.290786e-09
106	0xb155d900	-3.111893e-09
107	0xb180f620	-3.7532715e-09
108	0x3cc9052c	0.024538599
109	0xbc13add6	-0.009013614
110	0x3c79e2cd	0.015251827
111	0xbb2149fa	-0.0024610744
112	0x3c0ec152	0.008713083
113	0x3c5e593d	0.013571081
114	0x3c2568c2	0.010095777
115	0x3c32eb97	0.010920427
116	0x3d0ce7f3	0.03440089
117	0xbcaeecb6	-0.021353107
118	0xbc089211	-0.008335606
119	0x3c7e09fe	0.015505312
120	0xbbab9879	-0.005236682
121	0x3b7f9849	0.003900068
122	0x3ca3978b	0.019969722
123	0xbc56933f	-0.01309663
124	0x3b8e4515	0.0043417313
125	0x3c20e377	0.009819857
126	0x3c4c1aed	0.0124575915
127	0x3c89ce93	0.016822135
128	0x3d4536c4	0.04814793
129	0xbc0cc52a	-0.008591929
130	0x3c2b6af2	0.0104625095
131	0x3d00a29d	0.03140508
132	0xbd2bc69b	-0.04193745
133	0x3b3c95b9	0.0028775765
134	0x3cf05ebb	0.029342046
135	0xbd6309cf	-0.055429276
136	0x3c1fa42e	0.009743733
137	0x3da5cfd3	0.0809628
138	0xbd11f803	-0.035636913
139	0x3d04e5c5	0.032445688
140	0x3cc95150	0.024574906
141	0xbce413ff	-0.027841566
142	0x3c3b9d7f	0.011451124
143	0x3d030988	0.03199151
144	0xbccecbb5	-0.02524362
145	0x3c776e22	0.015101941
146	0x3d3777db	0.044792037
147	0xbcbf27d4	-0.023334421
148	0x3b26979a	0.0025419951
149	0x3c833813	0.01601795
150	0xbd69398a	-0.05693964
151	0xbc9ac8ce	-0.01889458
152	0x3bb117e9	0.0054044616
153	0x0000d8a7	7.772e-41
154	0x8000dd53	-7.9396e-41
155	0x80003001	-1.722e-41
156	0x800016c3	-8.165e-42
157	0x00008625	4.8122e-41
158	0x00005e1e	3.3763e-41
159	0x800033ba	-1.8556e-41
160	0x80002ee3	-1.682e-41
161	0x0000f2cd	8.71e-41
162	0xbca0ecb4	-0.019644119
163	0xbd006824	-0.031349316
164	0x3ce18395	0.027528564
165	0x3ad68f20	0.0016369559
166	0xbac7cb64	-0.001524311
167	0x3ce7400d	0.028228784
168	0xbc5a1b76	-0.013312211
169	0x3cb161f6	0.021653157
170	0xbca4330d	-0.020043874
171	0x00010431	9.3339e-41
172	0x8000f2ae	-8.7057e-41
173	0x8000b620	-6.5334e-41
174	0x8000915a	-5.2142e-41
175	0x8000c0c7	-6.9155e-41
176	0x8000338a	-1.8489e-41
177	0x00011cdd	1.0219e-40
178	0x8000210c	-1.1855e-41
179	0x00021267	1.90273e-40
180	0xbce818d0	-0.028332144
181	0xbd0772a3	-0.03306831
182	0xbe15c744	-0.14626795
183	0xbd15c13c	-0.036561236
184	0x3c9a5caa	0.018843014
185	0xbccc8e8d	-0.024970317
186	0xbe10cb1d	-0.14139982
187	0xbd11782e	-0.035515003
188	0xbc3e6e11	-0.011622922
189	0x0000be68	6.8305e-41
190	0x80009661	-5.3946e-41
191	0x8000e5e3	-8.2468e-41
192	0x8000ad94	-6.2268e-41
193	0x00009e4e	5.6789e-41
194	0x80014412	-1.16255e-40
195	0x000105f6	9.3974e-41
196	0x8000c7bc	-7.1651e-41
197	0x8000c24e	-6.9703e-41
198	0xbae234ae	-0.0017258131
199	0xbadc9b01	-0.0016830863
200	0xbabc3c5d	-0.0014361251
201	0xbaf9f768	-0.0019070925
202	0xbafeb350	-0.0019432101
203	0xbad40d3e	-0.0016178263
204	0xbb113bf7	-0.0022160986
205	0xbb0f4a2c	-0.0021864278
206	0xbaf02d3d	-0.0018324029
207	0x3b92ec9f	0.004483774
208	0x3cabc564	0.020968147
209	0x3d919eb0	0.07110345
210	0xbbd876a5	-0.0066059404
211	0xba61f788	-0.0008619954
212	0x3ca7f581	0.020502808
213	0xbd0bf9da	-0.034173824
214	0xbc85ae99	-0.016318606
215	0x3c27df72	0.010246145
216	0xbca0ef59	-0.01964538
217	0xbaeee8c5	-0.001822733
218	0x3cc32a90	0.023824006
219	0xbc10467c	-0.008805867
220	0x3c1a1aee	0.009405835
221	0x3d0d04e3	0.03442849
222	0xbcc88ce2	-0.02448124
223	0x3ac6d06e	0.0015168318
224	0x3cf3c988	0.029759184
225	0x3b817729	0.0039509726
226	0xbc3f1d37	-0.01166468
227	0x3c992bd0	0.01869765
228	0x3c40e5bb	0.011773522
229	0x3b93b784	0.0045079608
230	0xba801eeb	-0.0009774839
231	0xbc07393b	-0.008253391
232	0x3bdef0f1	0.006803625
233	0xbc28fdb2	-0.010314392
234	0xbb94176a	-0.0045193927
235	0x3d0c02ce	0.034182362
236	0x3e0327c2	0.12808135
237	0x3bc6b7af	0.0060643773
238	0xbc270635	-0.010194351
239	0x3cfe18e2	0.031017724
240	0x3d07f65f	0.033193942
241	0x3b0e052c	0.0021670563
242	0x3c6b4b94	0.014361281
243	0xbc6da63f	-0.014504968
244	0x3c7ef67d	0.015561697
245	0x3d104b98	0.03522834
246	0xbce6c35a	-0.028169323
247	0xbc54eb26	-0.012995517
248	0x39f940c2	0.0004754123
249	0xbd7d17f2	-0.061790414
250	0xbcbb61d4	-0.022873797
251	0xbc55f5c5	-0.013059084
252	0xbd065b39	-0.03280184
253	0x3c894cc6	0.016760241
254	0x3da3adb2	0.07992114
255	0xbcd4187f	-0.025890587

module.conv3.bias f4 [32]
0	0x3d102acd	0.035197068
1	0x3c3eef92	0.011653798
2	0x3d191ee5	0.03738298
3	0x3cf0c35c	0.02939003
4	0x3c9b398a	0.018948335
5	0x9666e4d7	-1.8651461e-25
6	0xbcd403a9	-0.025880652
7	0x3d238e67	0.039930727
8	0x3cb64844	0.022251256
9	0x3d2e53bd	0.042560328
10	0xba6da77e	-0.0009065791
11	0x3d1361ae	0.035981826
12	0xba3552b8	-0.0006916928
13	0x3c4106c1	0.011781395
14	0xab664702	-8.181096e-13
15	0x3d4df491	0.050282065
16	0xbb815bff	-0.0039477344
17	0xbcda3204	-0.026635177
18	0x8d27dba7	-5.1725245e-31
19	0xbce57dae	-0.02801403
20	0x3d114e49	0.03547505
21	0x971d358c	-5.079702e-25
22	0x3c8f4e10	0.017493278
23	0x3d442134	0.047883227
24	0xb7b67d11	-2.175433e-05
25	0x3bd663e3	0.006542669
26	0x3d4fe2a0	0.050753236
27	0x9fe5e1bf	-9.735874e-20
28	0xbca792d2	-0.020455752
29	0xb86a5eb6	-5.5878154e-05
30	0x3cc20bbd	0.023687238
31	0x9c11eded	-4.8283987e-22

module.conv4.weight f4 [32, 32, 3, 3]
0	0x3c0020d3	0.007820326
1	0x3cbddd0d	0.023176694
2	0x3d4315ed	0.047628332
3	0xb9943786	-0.00028270128
4	0x3c4a810b	0.012359868
5	0x3ca3a0ee	0.019974198
6	0x38beea38	9.103533e-05
7	0x3b8d2e80	0.0043085217
8	0x3c6cf261	0.0144620845
9	0x3bc591b5	0.0060293325
10	0x3c80affa	0.015708912
11	0x3d4bea8b	0.049784224
12	0x3c8ac9b6	0.016941886
13	0xbc143054	-0.009044725
14	0x3c7b9b68	0.015356876
15	0x3c85ee45	0.016348967
16	0x3c366085	0.0111314105
17	0x3d135eaa	0.03597895
18	0x3c1410fa	0.009037251
19	0x3c99474e	0.018710759
20	0x3ccb7cdd	0.024839813
21	0x3c0da98d	0.008646381
22	0x3b28b9b6	0.0025745458
23	0xbc64494f	-0.013933494
24	0x3c31b0ad	0.010845345
25	0xbacb3502	-0.0015503468
26	0x3ccb92a0	0.02485019
27	0xbc1a7810	-0.009428039
28	0xbb5eadd9	-0.0033978133
29	0x3c139b9e	0.00900927
30	0xbb010cc9	-0.0019691458
31	0xbb3981a1	-0.0028306025
32	0x3b581802	0.0032973294
33	0xbb15c292	-0.0022851569
34	0x3b4a1ef6	0.0030841208
35	0x3b936499	0.004498076
36	0x3c312f51	0.010814504
37	0x3b886520	0.0041624457
38	0x3cae4a58	0.021275684
39	0x3c4a84be	0.01236075
40	0xbb3e36f1	-0.0029024447
41	0x3bbdd9ea	0.0057937996
42	0xbb25f05a	-0.0025320263
43	0xbb03c2d2	-0.0020105136
44	0x3c111ee9	0.008857467
45	0x000124a0	1.04974e-40
46	0x80005f3b	-3.4162e-41
47	0x0000c510	7.0693e-41
48	0x80005559	-3.0617e-41
49	0x8000d1e9	-7.5302e-41
50	0x0000e712	8.2892e-41
51	0x0000de37	7.9716e-41
52	0x800179c7	-1.35521e-40
53	0x0000cf4c	7.4364e-41
54	0x3c7c7075	0.015407671
55	0x3c206543	0.009789768
56	0x3d465e2e	0.04842966
57	0x3be9a6af	0.007130466
58	0x3c7e2479	0.015511625
59	0x3c81196f	0.015759198
60	0x3be29d7d	0.0069157467
61	0x3b8d85c6	0.0043189256
62	0x3c7c01f4	0.015381325
63	0x3caa97f2	0.020824406
64	0x3bd98f0b	0.0066393665
65	0x3ca83ede	0.02053779
66	0x3c678d24	0.014132772
67	0x3c218ce8	0.009860255
68	0x3bfb66c9	0.007672165
69	0x3ca8219d	0.02052384
70	0x3bcc59b7	0.006236281
71	0x3d090b14	0.03345783
72	0xbb52cc8c	-0.0032165376
73	0x3c038055	0.008026202
74	0x3b7f3d2e	0.0038946378
75	0xbc505661	-0.012715907
76	0x3b053e75	0.0020331417
77	0x3bd55d29	0.0065113497
78	0xbc4c859e	-0.012483029
79	0x3ca1d636	0.019755464
80	0x3d972f0d	0.07382021
81	0x3c036310	0.008019224
82	0x3c5c316a	0.013439516
83	0x3be57ac8	0.007003162
84	0x3a982311	0.001160713
85	0x3bf93c0c	0.007606035
86	0x3c4630ed	0.012096626
87	0x3b4076bd	0.0029367649
88	0x3c02e12e	0.007988257
89	0x3c2f529d	0.010700849
90	0x3c8c0ab5	0.01709495
91	0x3c81c15c	0.015839271
92	0x3ccb2efe	0.024802681
93	0x3c433e63	0.01191673
94	0x3c65327f	0.01398909
95	0x3b2e3227	0.0026580186
96	0x3c993fb0	0.018707126
97	0x3c5ea9ab	0.013590257
98	0x3d298f56	0.04139646
99	0x3b95f3c5	0.0045761787
100	0x3a83ab05	0.0010045475
101	0x3d31a1aa	0.043367065
102	0xbb5eda44	-0.0034004608
103	0xbbce3b43	-0.0062936856
104	0x3aa1d1ee	0.0012345889
105	0x3a7bcadf	0.000960512
106	0xbc262f3c	-0.0101430975
107	0xbca47d78	-0.02007936
108	0xbb1d1403	-0.0023968227
109	0xbb8f72b2	-0.0043776864
110	0xba8fbf1e	-0.0010966992
111	0xbbd132a8	-0.0063842125
112	0xbbe1eeb7	-0.006894912
113	0xba9f3f18	-0.0012149541
114	0x3bbee44a	0.005825554
115	0x3c24b6e8	0.010053374
116	0x3cd3f53c	0.025873773
117	0x3cfecca5	0.031103441
118	0x3cc1ff61	0.023681344
119	0x3d0cb71b	0.03435431
120	0x3c6de2a9	0.014519372
121	0x3c2af63c	0.010434683
122	0x3c870685	0.016482601
123	0x3b92dc52	0.0044818306
124	0x3c197de0	0.00936839
125	0xbc120812	-0.008913057
126	0x0000fb40	9.0132e-41
127	0x8000be55	-6.8278e-41
128	0x0000bad7	6.7026e-41
129	0x80006348	-3.5615e-41
130	0x8000ee0d	-8.5397e-41
131	0x80008d2c	-5.0643e-41
132	0x800109bf	-9.5332e-41
133	0x0000c730	7.1455e-41
134	0x8000e961	-8.372e-41
135	0x3becf2e3	0.007231103
136	0xb93fe415	-0.00018300147
137	0x3baccdbd	0.0052735494
138	0xbb948eac	-0.0045336094
139	0xbaa94a24	-0.0012915772
140	0xb95faf0f	-0.00021332152
141	0x3bdaa01d	0.006671919
142	0x3b51fe95	0.0032042612
143	0x3caf09cf	0.021366982
144	0x3d20884c	0.039192483
145	0x3c801fa2	0.015640084
146	0x3c4af79f	0.012388139
147	0x3cdbd2e6	0.026833963
148	0x3ca5641a	0.020189334
149	0xbb1225b6	-0.002230031
150	0x3cd8ab74	0.026448943
151	0xbbdee9aa	-0.0068027573
152	0xbd09492a	-0.03351704
153	0x3a69d844	0.0008920471
154	0xbc424c40	-0.011859
155	0x3c8680bf	0.016418813
156	0xba3eeddb	-0.0007283368
157	0xbbcae221	-0.0061915074
158	0x3bf07e16	0.0073392494
159	0x3b508e7b	0.0031823206
160	0xbb361400	-0.0027782917
161	0x3c834757	0.016025228
162	0x80001c5b	-1.0172e-41
163	0x0000f2c2	8.7085e-41
164	0x00013017	1.09087e-40
165	0x0000c82d	7.181e-41
166	0x00004b37	2.6982e-41
167	0x8000f409	-8.7543e-41
168	0x80013a0a	-1.12656e-40
169	0x8000f163	-8.6593e-41
170	0x00016044	1.26369e-40
171	0x3ca1dec6	0.019759547
172	0x3c8c0c95	0.017095843
173	0x3d2aaa48	0.0416663
174	0x3a84a1c1	0.0010119007
175	0x3c2b8266	0.010468101
176	0x3d0161b2	0.03158731
177	0x3bf32238	0.0074198507
178	0x3bf210a1	0.007387236
179	0x3d188e5b	0.037245136
180	0xbc5110a6	-0.012760317
181	0xbc03beb4	-0.008041073
182	0xbb0c11fc	-0.0021373024
183	0xbc76c27e	-0.015061019
184	0xbc0b715e	-0.008510916
185	0x3a8cfc8e	0.001075642
186	0xbbede89b	-0.0072603947
187	0x3b1df992	0.0024105054
188	0x3c50f879	0.012754553
189	0x800038f9	-2.0438e-41
190	0x8000facd	-8.997e-41
191	0x8000e5cf	-8.244e-41
192	0x80004fec	-2.867e-41
193	0x80015317	-1.21643e-40
194	0x80012285	-1.04219e-40
195	0x8000e44b	-8.1896e-41
196	0x80008b1d	-4.9904e-41
197	0x800053c9	-3.0056e-41
198	0xbc9a14e1	-0.018808784
199	0xbc25f6e6	-0.010129666
200	0x3ad8022e	0.0016480142
201	0xbc98c3e5	-0.018648097
202	0xbc56eec1	-0.013118447
203	0xbb6cc81d	-0.003613002
204	0xbc58cdcc	-0.01323266
205	0x3b2467fe	0.0025086398
206	0x3d2c0a0e	0.042001776
207	0x3cdc26e8	0.02687402
208	0x3aba559b	0.0014216186
209	0x3ba3e7d8	0.005002003
210	0x3bee73c6	0.007276985
211	0xbc0dca84	-0.0086542405
212	0x3bb2660e	0.005444295
213	0x3c00ca20	0.00786069
214	0xbafa3185	-0.0019088244
215	0x3c89d350	0.016824394
216	0x1d9ad921	4.0987967e-21
217	0x1d954b2d	3.95177e-21
218	0x9d8e9149	-3.773731e-21
219	0x1d3d1670	2.5025542e-21
220	0x1d89322b	3.631547e-21
221	0x9c016a8e	-4.282024e-22
222	0x9cba510e	-1.23294e-21
223	0x1ce01706	1.4829028e-21
224	0x9cd33436	-1.3976305e-21
225	0x3c8fae8a	0.017539281
226	0x3bf2efe0	0.0074138492
227	0x3cc9867f	0.024600266
228	0x3cac8934	0.021061517
229	0x3b040e14	0.0020149993
230	0x3c9c820d	0.019104982
231	0x3c131291	0.008976595
232	0xbb0d15ba	-0.0021527843
233	0x3cfd7be0	0.030942857
234	0x3bb6e71e	0.0055817505
235	0x3b73c39b	0.0037195447
236	0x3ce4bdce	0.027922537
237	0xbb5beb06	-0.0033556833
238	0xbc11f411	-0.008908288
239	0x3c25d2c1	0.010121048
240	0x3baead45	0.005330714
241	0x3be15538	0.006876614
242	0x3cfb784e	0.030697014
243	0x8000e830	-8.3293e-41
244	0x000098d0	5.4819e-41
245	0x8000eb69	-8.4449e-41
246	0x0000ecfa	8.5011e-41
247	0x80008db1	-5.0829e-41
248	0x00009ecd	5.6967e-41
249	0x800079ee	-4.374e-41
250	0x8000f8ef	-8.93e-41
251	0x0000e5fd	8.2504e-41
252	0x3c885589	0.016642349
253	0x3c4a1f9a	0.012336636
254	0x3d060cc0	0.032727003
255	0x3a036766	0.0005012661

module.conv4.bias f4 [32]
0	0xbb00e333	-0.0019666671
1	0x3d56e40a	0.05246357
2	0x3c3c2482	0.0114833135
3	0x3c3b8458	0.011445127
4	0xbadf04e5	-0.0017015008
5	0xb098c980	-1.1116725e-09
6	0xbb1112f1	-0.0022136534
7	0x3ca95d15	0.020674268
8	0x3c25fc8f	0.010131015
9	0xbc1a0d30	-0.009402558
10	0x3c0b25ca	0.008492896
11	0xbb11ba64	-0.0022236342
12	0x3c1aeb9f	0.0094555905
13	0xb9693dee	-0.00022243682
14	0xbd018143	-0.031617414
15	0x3c6cc820	0.01445201
16	0xbd24a0a1	-0.04019225
17	0xbced8d50	-0.028998047
18	0x3ae1d431	0.0017229376
19	0xbc9228b8	-0.017841682
20	0x3c8b45ba	0.017001022
21	0xbb17554e	-0.0023091617
22	0x3ca4461a	0.020052958
23	0xbb182f64	-0.0023221606
24	0x3c0c480b	0.008562098
25	0xbc1a3c35	-0.009413769
26	0x3c0376ea	0.008023957
27	0x3d515212	0.05110366
28	0xb6a65956	-4.9575856e-06
29	0x3d19534a	0.037432946
30	0xbcd7b5e4	-0.02633185
31	0x3cf501f3	0.029908156

module.conv5.weight f4 [32, 64, 3, 3]
0	0x3b809844	0.0039244015
1	0xb8d8fdc7	-0.00010346952
2	0x3b262aef	0.002535518
3	0x3c641261	0.0139203975
4	0xbb1687bc	-0.0022969088
5	0x3a9f41f2	0.001215039
6	0xbbdb8930	-0.0066997036
7	0x3c82b7e3	0.015956825
8	0xbc4f3a71	-0.012648211
9	0x3c609b2e	0.013708873
10	0x3b1e4a2b	0.0024153094
11	0xbabbe2e3	-0.0014334585
12	0x3b43e681	0.002989203
13	0xba8fb9bc	-0.0010965387
14	0xbc51f93c	-0.01281577
15	0x3b785e26	0.0037897914
16	0xbc680b18	-0.014162801
17	0x3971f1ad	0.00023073582
18	0x3d04eda2	0.032453187
19	0x3ae49c88	0.001744167
20	0xb7455e93	-1.1764135e-05
21	0x3afe771c	0.001941416
22	0xbc6c56d8	-0.014425002
23	0x3c3eca4c	0.011644911
24	0x3c9f4001	0.0194397
25	0xbd1b7f93	-0.03796346
26	0xbb3534b0	-0.0027649812
27	0xba946712	-0.0011322221
28	0x3b9815c6	0.0046412675
29	0x3c9529b8	0.01820837
30	0xbca4c7d5	-0.020114819
31	0x3a18a299	0.0005822569
32	0x3b802143	0.003910215
33	0xbc7f482a	-0.01558117
34	0xbbf326c9	-0.007420395
35	0xba9cd36c	-0.0011964864
36	0x3d537b65	0.05163135
37	0x3bc8098b	0.0061046532
38	0xbbaa4c1f	-0.0051970626
39	0x3bae58eb	0.0053206584
40	0x3beb8d73	0.007188493
41	0x3a001364	0.0004885702
42	0x3b9861c0	0.0046503246
43	0xbcb3365b	-0.021876505
44	0xbb8021e4	-0.00391029
45	0x00013aa9	1.12879e-40
46	0x00003d67	2.2027e-41
47	0x00012d56	1.08099e-40
48	0x0000002f	6.6e-44
49	0x0000a47c	5.9006e-41
50	0x0000166c	8.043e-42
51	0x8000ea9f	-8.4166e-41
52	0x0000b581	6.5111e-41
53	0x00009bab	5.5843e-41
54	0x3c97c839	0.01852809
55	0xba9f6821	-0.001216177
56	0xbbae2d50	-0.0053154603
57	0x3b9940c3	0.0046769097
58	0x3b2a0387	0.0025942044
59	0xbc2f98ad	-0.010717553
60	0x3c50b427	0.012738264
61	0xbca7e14c	-0.020493172
62	0x3c1c1c1a	0.009528184
63	0x3c9b2326	0.018937659
64	0x3b360f2c	0.002778004
65	0xbb0b3e04	-0.002124668
66	0xbc9295cb	-0.017893692
67	0x3ca3f78f	0.020015506
68	0xbbcab7b1	-0.0061864485
69	0x3c905e14	0.017622985
70	0x3a2aea87	0.00065199326
71	0x3bcd35b3	0.006262505
72	0xbc6604b4	-0.014039207
73	0xbcdf5357	-0.02726142
74	0xbb72848f	-0.003700528
75	0xbc4dd3b7	-0.012562684
76	0xbca45653	-0.020060694
77	0x3be79860	0.007067725
78	0xbccace99	-0.024756717
79	0xbc3162a2	-0.010826739
80	0x3c454523	0.012040409
81	0xbc1416f4	-0.009038676
82	0xbcf2f4aa	-0.02965768
83	0xbcb7c171	-0.022431107
84	0xbc0f49af	-0.008745595
85	0xbc3c708b	-0.011501442
86	0xbd2df2a5	-0.042467732
87	0xbc047825	-0.008085285
88	0x3aa078fe	0.001224309
89	0xbc22a602	-0.009927275
90	0x3c12597a	0.008932466
91	0x3bca7b52	0.0061792517
92	0xbb1d69e7	-0.0024019422
93	0x3c532e1a	0.012889409
94	0x3b71ced2	0.0036896956
95	0xbb19efe6	-0.0023488938
96	0x3c42cf99	0.011890315
97	0x381229a3	3.484789e-05
98	0x3b9d7317	0.0048049795
99	0xbb6cf4dd	-0.0036156692
100	0xbc1a8096	-0.009430071
101	0x3968d4ac	0.0002220447
102	0xbcc9e293	-0.024644172
103	0x3c0ab23c	0.008465346
104	0xba2cf53d	-0.00065978226
105	0xba96c87c	-0.0011503841
106	0x3b24a396	0.002512192
107	0xba092ac4	-0.0005232508
108	0x3c41896f	0.011812552
109	0x3bdf55b4	0.0068156365
110	0x3c1ef6f5	0.009702434
111	0xb9f483ff	-0.0004663765
112	0x3b98e296	0.004665683
113	0x3be84ba7	0.0070890966
114	0x3a10b197	0.0005519627
115	0xbbe3336a	-0.0069336193
116	0x3b37d3a5	0.0028049734
117	0xbc09c880	-0.008409619
118	0x3bbc6110	0.0057488754
119	0xbbf4c4fc	-0.0074697714
120	0xbbe72d9a	-0.0070549967
121	0xbc86167d	-0.016368145
122	0xbc335ec2	-0.010947885
123	0x3b613369	0.0034362918
124	0x3b848f55	0.004045407
125	0xbc333692	-0.010938304
126	0x00004fc0	2.8609e-41
127	0x8000844f	-4.7463e-41
128	0x8000b8a3	-6.6235e-41
129	0x0000b7d3	6.5944e-41
130	0x00000467	1.579e-42
131	0x00006ebf	3.9728e-41
132	0x8000668e	-3.679e-41
133	0x00002e62	1.6639e-41
134	0x00008b9d	5.0084e-41
135	0xbb397140	-0.0028296262
136	0x397da603	0.00024189804
137	0xbc1a0c1c	-0.009402301
138	0x3b919357	0.004442613
139	0x3bb24816	0.005440722
140	0xbc01d3f3	-0.007924068
141	0xbadab88e	-0.0016687082
142	0xbb712d77	-0.003680078
143	0xba395267	-0.0007069469
144	0xbc1a3920	-0.009413034
145	0x3b248576	0.0025103963
146	0xbc281175	-0.010258068
147	0x3b1044e8	0.0022013728
148	0x3cd8c2de	0.026460107
149	0xbbaefa34	-0.005339885
150	0x3bedde10	0.007259138
151	0x3be8a8c7	0.007100198
152	0xba9dcd3f	-0.0012039318
153	0x3c51e0e6	0.012809968
154	0x3c872c52	0.016500626
155	0x3c1c9178	0.009556167
156	0xbb879722	-0.0041378895
157	0x3c69bcc1	0.014266194
158	0x3c635539	0.013875299
159	0x3cccc744	0.024997361
160	0xbc9b37d3	-0.018947517
161	0xbb8df8c1	-0.0043326323
162	0x80000914	-3.257e-42
163	0x8000e7ca	-8.315e-41
164	0x8000dd64	-7.942e-41
165	0x00003f4e	2.271e-41
166	0x80008648	-4.8171e-41
167	0x000006ea	2.48e-42
168	0x0000a774	6.0071e-41
169	0x00005712	3.1235e-41
170	0x8000e294	-8.1281e-41
171	0xbc30ad95	-0.010783573
172	0xba5ac73a	-0.0008345727
173	0x3ae6f8d8	0.0017621769
174	0xb89831ae	-7.2571784e-05
175	0xbb7f2c8b	-0.0038936462
176	0xbc396e67	-0.011317826
177	0x3c8108df	0.0157513
178	0xba0620c2	-0.00051165756
179	0xbbcfec0f	-0.006345279
180	0x3c0bee42	0.008540692
181	0x3b7964e9	0.0038054532
182	0xb9de6d8c	-0.00042424758
183	0x3c116802	0.008874895
184	0x3b47d387	0.003049107
185	0xbbb5c6e3	-0.005547391
186	0x3cdbd250	0.026833683
187	0x3cb0bb1b	0.021573594
188	0x3c595887	0.0132657355
189	0x8000351f	-1.9056e-41
190	0x8000c340	-7.0043e-41
191	0x80006f17	-3.9852e-41
192	0x0000c593	7.0876e-41
193	0x8000b960	-6.65e-41
194	0x8000354a	-1.9117e-41
195	0x000016a7	8.126e-42
196	0x80006167	-3.4941e-41
197	0x00007c24	4.4533e-41
198	0x3c241f96	0.010017296
199	0x3c1098a9	0.0088254595
200	0x3c407119	0.011745715
201	0x3c50fdec	0.012755852
202	0x3b184838	0.0023236405
203	0x3cd28b51	0.025701197
204	0x3bded7a3	0.0068006082
205	0xbca0ee0a	-0.019644756
206	0x3c04823c	0.008087691
207	0x3c9a509d	0.018837268
208	0x3a0e475e	0.00054275047
209	0xbb0cb833	-0.0021472096
210	0x3b02e6f7	0.0019974092
211	0x3c48f91a	0.012266422
212	0x3bd9a781	0.0066422825
213	0x3beee118	0.007290017
214	0x3d011fa4	0.031524315
215	0x3c039d1b	0.008033062
216	0x9d0722fa	-1.7885184e-21
217	0x1dcbcaf9	5.394352e-21
218	0x9d21f1df	-2.1433217e-21
219	0x1d07979e	1.7945485e-21
220	0x1e0c6f86	7.434601e-21
221	0x9e1b14ce	-8.209934e-21
222	0x1e0f815e	7.5971095e-21
223	0x1dde319e	5.8814214e-21
224	0x9e189ee0	-8.0796676e-21
225	0x3c5908f3	0.013246763
226	0x3b7c887b	0.0038533497
227	0xbc52a4bb	-0.012856658
228	0x3ba0b563	0.0049044355
229	0x3ae97acf	0.0017813089
230	0x3c347a51	0.011015491
231	0x3ba5e7fd	0.0050630555
232	0xbc251589	-0.010075935
233	0x3ab32655	0.001366804
234	0xbba1636f	-0.0049251835
235	0xbc479e38	-0.012183718
236	0xbc8059fa	-0.015667904
237	0x3c283ccd	0.010268402
238	0x3b5ff64b	0.0034173902
239	0x3caec678	0.021334872
240	0x3ace1930	0.0015724059
241	0x3a80bcf1	0.0009821934
242	0xbc2350a1	-0.009967954
243	0x0000928b	5.257e-41
244	0x8000ca9b	-7.2681e-41
245	0x8000bd10	-6.7823e-41
246	0x80007d70	-4.4998e-41
247	0x800063fa	-3.5865e-41
248	0x00005d72	3.3522e-41
249	0x0000b307	6.4223e-41
250	0x0000d082	7.4799e-41
251	0x000099cd	5.5173e-41
252	0x3b5a1c44	0.0033281008
253	0x3b8c18ee	0.004275433
254	0xbb113582	-0.0022157137
255	0x3b2dfaf0	0.0026547275

module.conv5.bias f4 [32]
0	0xbbe5fe2b	-0.0070188246
1	0x3cecd4af	0.02891001
2	0x3c911675	0.017710904
3	0xb2c8f915	-2.3396334e-08
4	0x3d15d9a9	0.03658453
5	0xbc1774e9	-0.009244182
6	0xb825045f	-3.9343136e-05
7	0x3cae92c7	0.021310223
8	0xbc5bd9f6	-0.013418665
9	0x3b388464	0.0028155083
10	0x9b7e074c	-2.1012745e-22
11	0x3ceb2dcc	0.028708361
12	0x3ca3f60f	0.02001479
13	0x3d4b72fc	0.049670205
14	0x3c7d44fc	0.015458342
15	0x3b78c14a	0.0037957006
16	0xba6573a7	-0.000875289
17	0x3c620701	0.013795615
18	0x3c9a95c6	0.018870246
19	0x3cf9c7df	0.030490814
20	0x3c97d73b	0.018535247
21	0x3d272e90	0.04081589
22	0xbcc3cce1	-0.023901405
23	0x3c8e456c	0.017367087
24	0x3b49ff63	0.0030822388
25	0x39e84e41	0.00044308792
26	0xb835b24d	-4.331982e-05
27	0x3cadd145	0.021217952
28	0xa8b2cb46	-1.9850126e-14
29	0x3c8fe1e7	0.017563773
30	0x3bf9c9a4	0.0076229144
31	0xbc9229a4	-0.017842121

module.conv6.weight f4 [32, 64, 3, 3]
0	0xbaee559b	-0.0018183471
1	0xbb13a65f	-0.0022529585
2	0xbb2f50f0	-0.0026751123
3	0xbaf4ad79	-0.0018667422
4	0xbb157995	-0.0022808064
5	0xbb30f743	-0.0027002848
6	0xbb02d3c8	-0.0019962657
7	0xbb1d4522	-0.0023997505
8	0xbb36753b	-0.002784087
9	0xb9abdcf0	-0.00032780273
10	0xbc9220b4	-0.01783786
11	0x3b1affa1	0.0023650902
12	0xbb402009	-0.002931597
13	0x3bb85678	0.0056255423
14	0x39845801	0.0002524257
15	0x3c35270c	0.011056673
16	0x3cf52c5c	0.029928379
17	0x3c874704	0.016513355
18	0xbc459b17	-0.012060902
19	0xbc942c04	-0.018087395
20	0xbb6c0d84	-0.0036018798
21	0xbbf695ab	-0.007525166
22	0xbbe0524b	-0.0068457476
23	0xbaf332e2	-0.0018554593
24	0xbc4d8229	-0.01254324
25	0xbca39de8	-0.019972757
26	0xbbdfeeb6	-0.0068338765
27	0xbbbfb811	-0.0058508
28	0x3c98dc8c	0.018659852
29	0x3c22edaa	0.009944359
30	0x3cd84081	0.026397945
31	0x3cb7d47b	0.022440186
32	0xbc88854c	-0.016665123
33	0x3d0c877b	0.03430889
34	0x3ceadacc	0.028668784
35	0x3c6a2cb0	0.014292881
36	0x3c8b2574	0.016985632
37	0xbb9154f7	-0.0044351774
38	0xbc7ad84b	-0.015310357
39	0x3c9ca3e0	0.01912111
40	0x3c0243dd	0.00795075
41	0x3bf0fc80	0.007354319
42	0x3a23f97b	0.0006255132
43	0xbb418a4c	-0.0029531894
44	0x3c8a6134	0.016892053
45	0x3c3947d4	0.011308629
46	0x3c34051d	0.010987547
47	0xbb3ac1b6	-0.0028496808
48	0x3c1eff56	0.0097044315
49	0xbaedeb4e	-0.0018151791
50	0x3aaa91bb	0.0013013402
51	0x3bf6016d	0.007507494
52	0xbc3b9c2f	-0.011450811
53	0x3c2a8907	0.010408646
54	0x3b8e69e4	0.0043461192
55	0x3aaa2bc3	0.0012983013
56	0xbbcd770a	-0.006270294
57	0x3c0b0e0d	0.008487237
58	0x3c166ebe	0.009181676
59	0x3acab54d	0.0015465409
60	0x3b7863ee	0.003790136
61	0x3abb725b	0.0014301048
62	0x3b26a4fb	0.0025427926
63	0xbbda46ac	-0.006661257
64	0x3d0ec64f	0.03485709
65	0x3c9ff2c4	0.01952494
66	0xbd0b95ba	-0.034078337
67	0x3ba37319	0.004988086
68	0xbd186cff	-0.03721332
69	0xbd1ad8f7	-0.03780457
70	0x3a9eb2ba	0.0012107708
71	0xbd05150a	-0.032490768
72	0xbc0f6ac0	-0.0087534785
73	0x3b25f13d	0.0025320791
74	0x3bcbc33f	0.0062183435
75	0x3c7365c0	0.014855802
76	0x3c00109d	0.007816461
77	0x3b18961c	0.0023282832
78	0x3cee2d10	0.029074222
79	0x3c02bf9d	0.0079802545
80	0xbc224340	-0.009903729
81	0xbb98428a	-0.004646604
82	0xba85df7b	-0.0010213697
83	0xbd0a112b	-0.03370778
84	0xb801cdda	-3.094771e-05
85	0x3b68b2c2	0.0035506939
86	0xbc812ffe	-0.015769955
87	0xbb6d0dac	-0.003617148
88	0x3b443f27	0.0029944868
89	0x3bc50809	0.0060129208
90	0x3cb3c33a	0.021943677
91	0x3c9fb3c8	0.019494906
92	0xbc060e48	-0.008182116
93	0x3d0d3adb	0.034479957
94	0x3c5bce18	0.013415836
95	0xbd4e08d3	-0.050301384
96	0xbb215722	-0.0024618586
97	0xbc5d3359	-0.013501012
98	0xbd01ad6e	-0.031659536
99	0x3213c983	8.602345e-09
100	0x31cab44c	5.899471e-09
101	0x31b73318	5.3318097e-09
102	0x320c0208	8.149534e-09
103	0x31d89a23	6.3039507e-09
104	0x316da199	3.4579897e-09
105	0x31f5674d	7.1421824e-09
106	0x31729361	3.529941e-09
107	0x31aa682e	4.959495e-09
108	0xbcbb8c4b	-0.022894045
109	0x3d108c0a	0.0352898
110	0xbc878b13	-0.016545808
111	0x3c39f357	0.011349521
112	0x3c3dc646	0.011582917
113	0x3bd8d09b	0.0066166646
114	0xbb20e6b5	-0.0024551575
115	0xbca47f09	-0.020080106
116	0xbc18090f	-0.0092795035
117	0x3ca92416	0.02064709
118	0xbbc2067a	-0.005921182
119	0xbc68f88c	-0.014219414
120	0x3a1fcdf9	0.0006096061
121	0x3c38dc8e	0.011283053
122	0xbc7d413f	-0.01545745
123	0xbc96c4d5	-0.018404404
124	0xbcaf910b	-0.021431467
125	0x3cb107f5	0.02161024
126	0x3cdfc874	0.027317263
127	0xbbc021a8	-0.005863387
128	0xbcd44c11	-0.025915178
129	0x3c8298f6	0.015942078
130	0x3c9353bb	0.017984262
131	0xbbe921a1	-0.0071146046
132	0x3bfa0d85	0.007631006
133	0xbc69b75b	-0.014264907
134	0x3cc13070	0.023582667
135	0x3c7a8511	0.015290515
136	0x3b231773	0.0024885803
137	0xbbd8dc22	-0.0066180388
138	0x3c2312c4	0.009953205
139	0x3c03ec43	0.008051935
140	0xba3a949c	-0.00071174814
141	0x3c8db959	0.017300295
142	0x3a5c9824	0.00084150047
143	0xbab5fe16	-0.0013884928
144	0x3b9e75da	0.0048358263
145	0xba730c63	-0.000927156
146	0x399e651b	0.00030211438
147	0x3b5fa562	0.0034125675
148	0x3c8caa6e	0.017171111
149	0xbb5c30e8	-0.0033598486
150	0x3bc26ad4	0.005933145
151	0x3c5f0d44	0.013614003
152	0xbb403b7b	-0.0029332328
153	0x80009e7a	-5.685e-41
154	0x00007ceb	4.4812e-41
155	0x0000a7ae	6.0152e-41
156	0x8000bd2a	-6.7859e-41
157	0x000070a6	4.041e-41
158	0x80005a1a	-3.2322e-41
159	0x000052c5	2.9692e-41
160	0x8000889a	-4.9003e-41
161	0x00008f0e	5.1318e-41
162	0x3c8bd1ff	0.017067907
163	0xbc456f2f	-0.012050434
164	0xbc105875	-0.008810152
165	0xbb9d84a0	-0.00480707
166	0xbc1860cc	-0.009300422
167	0xbcbb6c34	-0.022878744
168	0x3c99a2e8	0.018754438
169	0xbc547ced	-0.012969238
170	0xbcab48f5	-0.020908812
171	0x800121ce	-1.03962e-40
172	0x8000268d	-1.383e-41
173	0x0000abf3	6.1684e-41
174	0x8000ef96	-8.5947e-41
175	0x0000dae2	7.852e-41
176	0x00006d14	3.913e-41
177	0x000071a7	4.0771e-41
178	0x0000f715	8.8636e-41
179	0x0000ca91	7.2667e-41
180	0xbbd43c31	-0.006476902
181	0x3c810df3	0.015753722
182	0xbb824720	-0.003975764
183	0x3b5cf6d8	0.0033716466
184	0x3cbd5d33	0.02311573
185	0x3a4dbbcd	0.0007848114
186	0x3c7c9146	0.015415495
187	0x3c11af7b	0.008891935
188	0xba55e338	-0.00081591634
189	0x800046d0	-2.5403e-41
190	0x800117b2	-1.00336e-40
191	0x800045a2	-2.498e-41
192	0x800093c2	-5.3006e-41
193	0x800054dd	-3.0443e-41
194	0x00008be8	5.0189e-41
195	0x8000f0a6	-8.6328e-41
196	0x8000f485	-8.7717e-41
197	0x8000eae2	-8.426e-41
198	0x3a174d14	0.00057716784
199	0xb8138006	-3.5166762e-05
200	0xba67f53b	-0.0008848493
201	0x3a57bccd	0.00082297326
202	0x392b3f52	0.0001633142
203	0xba392f3b	-0.0007064228
204	0x3a729027	0.0009253048
205	0x392a9848	0.00016269193
206	0xba149e7c	-0.0005669368
207	0x3b1e5c8c	0.002416405
208	0x3c09c10f	0.008407845
209	0x3bcd2626	0.006260651
210	0x3c9429b9	0.018086301
211	0xbc41f6bc	-0.011838611
212	0xbbadfc84	-0.005309643
213	0x3b03b664	0.0020097727
214	0x3bb4ed24	0.0055214334
215	0xbb245afd	-0.0025078647
216	0x3b7eddb8	0.003888948
217	0x3be90d77	0.007112201
218	0x39f485db	0.00046639037
219	0xb9ba306c	-0.00035512762
220	0xba9ffa4a	-0.0012205329
221	0xbb471593	-0.003037785
222	0x3b90657b	0.0044066287
223	0xbb187031	-0.002326023
224	0xbc6a12c2	-0.014286699
225	0xbb4aa479	-0.0030920787
226	0x3d23824d	0.039919186
227	0xbc02e8b2	-0.007990049
228	0xbab84d57	-0.0014061135
229	0x3c4fab74	0.012675155
230	0x3bd40ae6	0.0064710258
231	0x3c9b167f	0.018931625
232	0x3d48329b	0.048876386
233	0xbbb75bb0	-0.005595647
234	0x3b93b5f6	0.0045077754
235	0x3c580130	0.013183877
236	0x393c90df	0.00017983046
237	0x3bd25b8c	0.0064196046
238	0x39503800	0.00019857287
239	0xbc0368b5	-0.00802057
240	0xbc085774	-0.008321632
241	0xbb398d45	-0.0028312963
242	0xbc4d8701	-0.0125443945
243	0xb8eb4da3	-0.00011220134
244	0x3c2a3ba7	0.010390199
245	0x3b824c69	0.003976394
246	0xbc0d25f4	-0.008615006
247	0x3c2dc083	0.01060498
248	0x3c02ae14	0.007976074
249	0x3cc26910	0.023731738
250	0x3c44ef25	0.012019907
251	0xbbfc968a	-0.0077083753
252	0x3c448784	0.0119952
253	0x3a15f47c	0.000572033
254	0x3bf8f085	0.0075970315
255	0x3cde69d5	0.027150074

module.conv6.bias f4 [32]
0	0x3ca2e24e	0.019883301
1	0x3d111983	0.03542472
2	0xbae8a5c9	-0.0017749603
3	0x8002834e	-2.30774e-40
4	0x3cccf4c3	0.025019055
5	0xbc518ec5	-0.012790387
6	0x3c176c97	0.009242198
7	0xbbff7dee	-0.0077969944
8	0x39ea085e	0.00044638192
9	0x3c01bfc4	0.007919256
10	0x3bf6929c	0.0075248014
11	0x3b6a6fb4	0.0035772147
12	0x3cd7d05d	0.026344473
13	0x8fe69194	-2.2735826e-29
14	0x3d0e66a6	0.034765862
15	0x92169175	-4.7510944e-28
16	0xbb52145e	-0.0032055597
17	0xbb8aa806	-0.0042314557
18	0x3cd1a76b	0.025592526
19	0x3d27f63f	0.041006323
20	0x3d024712	0.03180606
21	0xbb79c93c	-0.003811433
22	0x3d257148	0.040391237
23	0x3b615aa6	0.0034386306
24	0x39e850e0	0.00044310745
25	0x3cce35f2	0.025172208
26	0x3c14067c	0.009034749
27	0xbc9f3ba2	-0.019437615
28	0x9e3dcf17	-1.0048402e-20
29	0x3cf517fb	0.029918661
30	0xbcd24adc	-0.025670461
31	0x3ceacf53	0.028663313
