checkpoints/model_175_20.pth (torch, 322733 bytes, 14 tensors)

module.conv1.weight f4 [32, 3, 3, 3]
0	0x3c6fb975	0.014631619
1	0x3b215484	0.0024617026
2	0xbc7c3ef8	-0.015395872
3	0xbca52292	-0.020158086
4	0xbc0c431c	-0.008560922
5	0xbb07cb7d	-0.0020720654
6	0xbcb3861e	-0.021914538
7	0x3bc213db	0.005922777
8	0x3c947132	0.018120382
9	0xbd15f24a	-0.036608018
10	0xbc46284e	-0.01209457
11	0xbd437980	-0.047723293
12	0xbca54b4d	-0.020177508
13	0x3cc6ac33	0.024252033
14	0x3bbc8106	0.0057526855
15	0xbcc06270	-0.023484439
16	0xbcd94be5	-0.026525447
17	0xbd1bc4c8	-0.038029462
18	0xbd2015b5	-0.0390832
19	0xbd2ec8a7	-0.042671826
20	0xbdb666e2	-0.08906342
21	0xbca6a2b5	-0.020341257
22	0xbc1778b3	-0.0092450855
23	0xbd189850	-0.03725463
24	0xbd9de5ac	-0.07709822
25	0xbc937f84	-0.01800514
26	0xbd363b0b	-0.0444899
27	0x3bb02b0a	0.0053762244
28	0x3b2879e7	0.0025707425
29	0xbb967eaa	-0.0045927363
30	0x3c907c6c	0.017637454
31	0x3cfee2dd	0.031114036
32	0x3bf2cf05	0.0074099326
33	0x3cb32162	0.021866504
34	0x3c171499	0.009221219
35	0x3c603969	0.013685563
36	0x3c4d4d79	0.012530678
37	0x3c9a8058	0.018860027
38	0x3cec579f	0.028850375
39	0x3c757bda	0.014983142
40	0xba76d6dd	-0.00094161724
41	0x3c8e6af9	0.017384993
42	0x3ca39074	0.019966342
43	0x3d3a6002	0.045501716
44	0x3ca6ef02	0.02037764
45	0x3cb9cda8	0.022681072
46	0x3c8c5220	0.017129004
47	0x3c074aee	0.008257611
48	0x3c5d0bda	0.013491595
49	0x3c1ed348	0.009693928
50	0x3bce1f8e	0.0062903827
51	0x3c719dfb	0.014747138
52	0xbafd7ad6	-0.0019338976
53	0x3b5f3ed0	0.0034064539
54	0xbd08f4d9	-0.03343663
55	0xbd5e394c	-0.05425386
56	0xbd95378e	-0.07285987
57	0xbd287f31	-0.041136924
58	0xbcf2d104	-0.029640682
59	0xbca24695	-0.019809047
60	0xbd13b4e3	-0.03606118
61	0xbce15481	-0.027506115
62	0xbc9aec6d	-0.018911565
63	0xbd07e378	-0.033175915
64	0xbc919ca9	-0.017774897
65	0xbd597838	-0.053093165
66	0xbce41f3b	-0.027846923
67	0x3c201549	0.0097707
68	0xbc8d118f	-0.017220287
69	0xbd53a175	-0.05166765
70	0xb9e229f6	-0.00043137342
71	0xbc23acad	-0.0099899
72	0x3b19f1a0	0.0023489967
73	0x3c9c9d22	0.019117896
74	0xbc9b9a2f	-0.018994419
75	0xbc12e7e4	-0.00896642
76	0xbc6251d5	-0.013813456
77	0xbc134c7c	-0.008990403
78	0xbcaaa15c	-0.020828895
79	0xbc391a91	-0.011297838
80	0x3c0e7ced	0.008696777
81	0x8000385e	-2.0221e-41
82	0x00006010	3.4461e-41
83	0x80003d4c	-2.1989e-41
84	0x8000e4fe	-8.2147e-41
85	0x0000bc02	6.7444e-41
86	0x8000f5d4	-8.8187e-41
87	0x8000ecfa	-8.5011e-41
88	0x00008099	4.6132e-41
89	0x0000aa61	6.112e-41
90	0x0001034a	9.3015e-41
91	0x8001c676	-1.6303e-40
92	0x80004d73	-2.7784e-41
93	0x8000e815	-8.3255e-41
94	0x000063d6	3.5814e-41
95	0x0000891d	4.9187e-41
96	0x8001059d	-9.3849e-41
97	0x000074e7	4.1937e-41
98	0x0000d375	7.5856e-41
99	0x00003960	2.0582e-41
100	0x0000e823	8.3275e-41
101	0x800052d3	-2.9712e-41
102	0x0000d857	7.7608e-41
103	0x80012424	-1.048e-40
104	0x8000b5c6	-6.5208e-41
105	0x00013ac1	1.12912e-40
106	0x000108b3	9.4956e-41
107	0x00016373	1.27511e-40
108	0x3da7dded	0.08196626
109	0x3d7fd0f0	0.062455118
110	0x3dbc9f5c	0.09210083
111	0x3ba0c32d	0.0049060793
112	0xbcd08e79	-0.025458561
113	0xbc5812cd	-0.013188076
114	0xbbc0cb55	-0.005883614
115	0xbb1449df	-0.0022627038
116	0xbc5be802	-0.013422014
117	0x3d8e24e7	0.06940632
118	0x3cc0305c	0.02346056
119	0x3d2051b9	0.039140437
120	0xbd054ea7	-0.03254571
121	0xbb8103e2	-0.0039372304
122	0xbce8864c	-0.02838435
123	0xbc1f34f4	-0.009717215
124	0xbca7951e	-0.020456847
125	0xbd042480	-0.03226137
126	0x3cbe680e	0.023242977
127	0x3cd80eaa	0.02637418
128	0x3cbad950	0.0228087
129	0x3c8a2801	0.016864778
130	0xbcdfb9df	-0.02731031
131	0xbc916a37	-0.017750842
132	0xbbfbf734	-0.007689381
133	0xbb4646a2	-0.0030254503
134	0xbd08a271	-0.03335804
135	0x00007f47	4.5659e-41
136	0x8000e943	-8.3679e-41
137	0x00000df9	5.012e-42
138	0x00009680	5.3989e-41
139	0x0001d1e3	1.67129e-40
140	0x80006c6c	-3.8894e-41
141	0x80011bae	-1.01765e-40
142	0x0001a3fa	1.50659e-40
143	0x000172c1	1.33001e-40
144	0x80013f85	-1.14622e-40
145	0x80007324	-4.1305e-41
146	0x0000a11d	5.7797e-41
147	0x00017ab2	1.3585e-40
148	0x00002e53	1.6618e-41
149	0x8000b5a9	-6.5167e-41
150	0x0000b98b	6.656e-41
151	0x8000aa6e	-6.1139e-41
152	0x800142f8	-1.1586e-40
153	0x0000561f	3.0894e-41
154	0x8000ea9f	-8.4166e-41
155	0x00001776	8.416e-42
156	0x00009cb3	5.6213e-41
157	0x000051fc	2.941e-41
158	0x00010987	9.5253e-41
159	0x80012290	-1.04234e-40
160	0x00010cf8	9.6488e-41
161	0x8000cb83	-7.3006e-41
162	0x3b480c6e	0.0030524987
163	0xbc202aec	-0.009775858
164	0xbbd3f0eb	-0.0064679286
165	0xbc14c55c	-0.009080257
166	0xbc5941a7	-0.013260282
167	0xbc0ed294	-0.008717198
168	0xbab85847	-0.0014064395
169	0xbc957c57	-0.018247766
170	0xbc3b040e	-0.011414541
171	0x3b001899	0.0019545911
172	0xbbe8d4ee	-0.0071054613
173	0xbc0f7475	-0.008755793
174	0xba95e250	-0.0011435244
175	0xba70cf2d	-0.0009186145
176	0xbc63b4d7	-0.013898096
177	0xbb929aa8	-0.004474003
178	0xbc57757f	-0.013150572
179	0xbc342dea	-0.010997275
180	0xbca40e8d	-0.02002647
181	0xbc60356f	-0.013684615
182	0xbc94df9e	-0.018173035
183	0xbb518c7e	-0.003197461
184	0xbba0a4ec	-0.0049024727
185	0xbbe29bcc	-0.006915545
186	0x3cae17cc	0.021251582
187	0x3c5e9097	0.013584278
188	0x3b581319	0.0032970367
189	0x3d0f52a2	0.034990914
190	0x3d355189	0.04426721
191	0x3ccf8950	0.02533403
192	0xbc94b3d7	-0.01815216
193	0xbd0ca2fd	-0.034335125
194	0xbd0d31b1	-0.034471218
195	0xbcfaceec	-0.030616246
196	0xbba66f8f	-0.005079217
197	0x3c38a9f9	0.011270993
198	0x3d394a1b	0.045236688
199	0x3d1c4ad0	0.038157284
200	0x3d13aec0	0.036055326
201	0x3bc693a4	0.0060600806
202	0xbd434d4a	-0.04768113
203	0xbd668922	-0.056283124
204	0xbca25662	-0.019816581
205	0xbbebbdd7	-0.0071942615
206	0x3b081646	0.002076523
207	0x3d5a87f0	0.053352296
208	0x3d55b62a	0.05217568
209	0x3d2e21dc	0.04251276
210	0xbbf22446	-0.007389578
211	0xbb81f5f7	-0.003966089
212	0xbc0d6ef0	-0.008632407
213	0xbd8089ab	-0.06276258
214	0xbd6fcab0	-0.058542907
215	0xbc2d0b7d	-0.010561821
216	0xbd767084	-0.060165897
217	0x3b4e11c5	0.0031443697
218	0x3ddd79ea	0.10814269
219	0xbb03b04a	-0.002009409
220	0xbd346462	-0.044041045
221	0x3d5e650a	0.054295577
222	0xbcbcca3f	-0.023045657
223	0xbbe47727	-0.006972212
224	0x3e0ff965	0.1405998
225	0xbd70e42b	-0.058811348
226	0xbcfca437	-0.030840022
227	0x3dc900dc	0.09814617
228	0xbc57e908	-0.013178118
229	0xbd2acf46	-0.041701578
230	0x3d704fa9	0.05866972
231	0xbcf00449	-0.029298918
232	0xbbfd617a	-0.0077325674
233	0x3de7e743	0.113234065
234	0xbd924c65	-0.07143477
235	0xbc8e7851	-0.017391356
236	0x3d96aabc	0.07356784
237	0x3c5bf96d	0.013426167
238	0xbd35fd5b	-0.04443107
239	0x3c54ce3b	0.012988622
240	0xbd291448	-0.041279107
241	0xbcdaa286	-0.026688825
242	0x3dcec72e	0.10096584
243	0x80002b5c	-1.5554e-41
244	0x000009d4	3.526e-42
245	0x00004374	2.4198e-41
246	0x0000b809	6.602e-41
247	0x80018055	-1.37872e-40
248	0x8000e609	-8.2521e-41
249	0x80017382	-1.33272e-40
250	0x8000dcf3	-7.9262e-41
251	0x00008cbb	5.0485e-41
252	0x000063af	3.576e-41
253	0x8000beeb	-6.8488e-41
254	0x8001cea2	-1.65961e-40
255	0x80010137	-9.2271e-41

module.conv1.bias f4 [32]
0	0x3db01375	0.08597461
1	0x3e26642b	0.16249149
2	0x3de97827	0.1139987
3	0x9088785e	-5.3827997e-29
4	0x3b5e43ab	0.0033914845
5	0xa475fd30	-5.3340365e-17
6	0x3e28fc59	0.16502513
7	0x3c21a2ac	0.009865444
8	0x3c8f280b	0.017475149
9	0xa5233273	-1.4155089e-16
10	0x3e24fd9d	0.16112371
11	0x3e3d373d	0.18478103
12	0x3def0802	0.11671449
13	0x3db36a1f	0.08760475
14	0x3e3df83c	0.18551725
15	0xaab74523	-3.2555303e-13
16	0x3e1efdb3	0.15526466
17	0xbb465e76	-0.0030268705
18	0x3aa35ea8	0.0012464123
19	0xacb9b973	-5.2786052e-12
20	0x3bef55fe	0.0073039522
21	0xaab2b42a	-3.1744166e-13
22	0xb5e2a5c3	-1.6886555e-06
23	0x3e425d6c	0.1898095
24	0xbd7c1924	-0.061547413
25	0x3d6c9a64	0.057764426
26	0x3e4ef856	0.2021192
27	0x3daa6246	0.083195254
28	0xa90cfc13	-3.1304884e-14
29	0x3d8abbe5	0.06774119
30	0x3e17de6f	0.14830945
31	0x3d224299	0.039614294

module.conv2.weight f4 [32, 32, 3, 3]
0	0x0000f8b2	8.9215e-41
1	0x00011ed2	1.02892e-40
2	0x0000e9ee	8.3918e-41
3	0x00014889	1.17856e-40
4	0x80012f3c	-1.0878e-40
5	0x00010a33	9.5494e-41
6	0x0000b5d5	6.5229e-41
7	0x8000cb19	-7.2858e-41
8	0x80014440	-1.16319e-40
9	0x0000271d	1.4031e-41
10	0x8000c1a3	-6.9464e-41
11	0x80008f82	-5.1481e-41
12	0x0000c4b0	7.0558e-41
13	0x80003bc8	-2.1445e-41
14	0x00008cf9	5.0571e-41
15	0x80002b07	-1.5435e-41
16	0x000080ef	4.6253e-41
17	0x8000047f	-1.613e-42
18	0x00011667	9.9872e-41
19	0x00001d17	1.0435e-41
20	0x8000c947	-7.2205e-41
21	0x00007dc8	4.5122e-41
22	0x8000e6bb	-8.277e-41
23	0x000069ff	3.8024e-41
24	0x0000ec6c	8.4812e-41
25	0x0000d338	7.5771e-41
26	0x00003476	1.882e-41
27	0x8000f41a	-8.7567e-41
28	0x0000ae78	6.2588e-41
29	0x80001c88	-1.0235e-41
30	0x8000a2a8	-5.835e-41
31	0x8000bab8	-6.6982e-41
32	0x000040d7	2.326e-41
33	0x80013b8f	-1.13201e-40
34	0x8000801a	-4.5954e-41
35	0x80003302	-1.8298e-41
36	0x00007e7a	4.5371e-41
37	0x80003280	-1.8116e-41
38	0x0000e104	8.072e-41
39	0x80004180	-2.3497e-41
40	0x00007129	4.0594e-41
41	0x0000acfa	6.2052e-41
42	0x0000bba4	6.7313e-41
43	0x0000c09a	6.9092e-41
44	0x00008587	4.79e-41
45	0x0000b7f1	6.5986e-41
46	0x80002f67	-1.7005e-41
47	0x80003d11	-2.1906e-41
48	0x000023f6	1.29e-41
49	0x80007867	-4.3192e-41
50	0x800028df	-1.4662e-41
51	0x00000fe2	5.698e-42
52	0x8000bf1c	-6.8557e-41
53	0x80001a71	-9.485e-42
54	0x0000d8ad	7.7729e-41
55	0x8000baa8	-6.696e-41
56	0x00002f42	1.6953e-41
57	0x000053a5	3.0006e-41
58	0x000072c0	4.1165e-41
59	0x00004cf2	2.7603e-41
60	0x800017aa	-8.489e-42
61	0x00005768	3.1355e-41
62	0x800034f2	-1.8993e-41
63	0x00012dbe	1.08245e-40
64	0x0000854f	4.7822e-41
65	0x00005747	3.1309e-41
66	0x00014b14	1.18768e-40
67	0x8000dfe9	-8.0324e-41
68	0x80018a7b	-1.41513e-40
69	0x80010069	-9.1983e-41
70	0x000072a0	4.112e-41
71	0x8001145f	-9.9143e-41
72	0x0000418d	2.3515e-41
73	0x8000288b	-1.4544e-41
74	0x0000e128	8.0771e-41
75	0x0000d3fc	7.6046e-41
76	0x800013d6	-7.116e-42
77	0x000047ae	2.5714e-41
78	0x0000c54a	7.0774e-41
79	0x0000ab31	6.1412e-41
80	0x0000c55f	7.0803e-41
81	0x80002fe6	-1.7183e-41
82	0x8000444f	-2.4505e-41
83	0x8001abde	-1.5349e-40
84	0x8000d07f	-7.4794e-41
85	0x0001cb06	1.64667e-40
86	0x0000d535	7.6484e-41
87	0x80010e21	-9.6904e-41
88	0x0000783b	4.313e-41
89	0x00015b65	1.24622e-40
90	0x00005aff	3.2643e-41
91	0x8000c1be	-6.9502e-41
92	0x000012e2	6.774e-42
93	0x80005962	-3.2065e-41
94	0x80002509	-1.3286e-41
95	0x8000079d	-2.731e-42
96	0x0000de35	7.9713e-41
97	0x000080b0	4.6164e-41
98	0x000020f8	1.1827e-41
99	0x80002d24	-1.6193e-41
100	0x8000c25a	-6.972e-41
101	0x800047c4	-2.5745e-41
102	0x00009752	5.4283e-41
103	0x0000c57c	7.0844e-41
104	0x0000cc47	7.3281e-41
105	0x80003105	-1.7585e-41
106	0x00006ede	3.9772e-41
107	0x0000229d	1.2417e-41
108	0x80005a6f	-3.2441e-41
109	0x0000dabc	7.8467e-41
110	0x0000e0aa	8.0594e-41
111	0x00004a07	2.6556e-41
112	0x80000adb	-3.894e-42
113	0x0000c3fe	7.0309e-41
114	0x8000da2d	-7.8267e-41
115	0x000068bc	3.7572e-41
116	0x00004b78	2.7073e-41
117	0x800071c1	-4.0807e-41
118	0x00004386	2.4223e-41
119	0x80005b02	-3.2647e-41
120	0x0000900d	5.1676e-41
121	0x00000bcf	4.236e-42
122	0x00009d87	5.651e-41
123	0x0000da4a	7.8307e-41
124	0x000069ed	3.7999e-41
125	0x80002de9	-1.647e-41
126	0x80008a74	-4.9668e-41
127	0x800025e7	-1.3597e-41
128	0x8000cf1b	-7.4295e-41
129	0x8000d076	-7.4782e-41
130	0x0000e286	8.1261e-41
131	0x0000779f	4.2912e-41
132	0x800038cf	-2.0379e-41
133	0x80006e4c	-3.9567e-41
134	0x0000364d	1.948e-41
135	0x0001a0f3	1.49573e-40
136	0x00003237	1.8014e-41
137	0x00007db7	4.5098e-41
138	0x80011b71	-1.0168e-40
139	0x8000d1d2	-7.527e-41
140	0x8000b5e0	-6.5244e-41
141	0x8000ee2f	-8.5444e-41
142	0x0000e914	8.3613e-41
143	0x0000cb15	7.2852e-41
144	0x8000dedd	-7.9948e-41
145	0x00000a12	3.613e-42
146	0x0000d22a	7.5393e-41
147	0x8000cfbb	-7.452e-41
148	0x8000d43d	-7.6137e-41
149	0x0000a35e	5.8605e-41
150	0x0000a7e8	6.0233e-41
151	0x0000162a	7.951e-42
152	0x800088ba	-4.9048e-41
153	0x00009f6e	5.7193e-41
154	0x0000508b	2.8893e-41
155	0x0000c07a	6.9048e-41
156	0x00009d7f	5.6499e-41
157	0x8000b8ca	-6.629e-41
158	0x0001011f	9.2238e-41
159	0x00009387	5.2923e-41
160	0x8000cb7e	-7.2999e-41
161	0x00006d46	3.92e-41
162	0x8000c7a1	-7.1613e-41
163	0x0000806c	4.6069e-41
164	0x80018c05	-1.42065e-40
165	0x00007dc9	4.5123e-41
166	0x80010ef9	-9.7207e-41
167	0x80009ca3	-5.619e-41
168	0x8000eb02	-8.4305e-41
169	0x8000ed96	-8.523e-41
170	0x0000ec29	8.4718e-41
171	0x0000e1bb	8.0977e-41
172	0x00000e22	5.07e-42
173	0x8000f4d3	-8.7826e-41
174	0x000139d1	1.12576e-40
175	0x8000d9d2	-7.8139e-41
176	0x000000d4	2.97e-43
177	0x00006ce8	3.9068e-41
178	0x800158b8	-1.23662e-40
179	0x0000e985	8.3771e-41
180	0x8000f2a5	-8.7044e-41
181	0x00001431	7.243e-42
182	0x80001620	-7.937e-42
183	0x80006d9a	-3.9318e-41
184	0x0000db75	7.8726e-41
185	0x000027e1	1.4306e-41
186	0x00006819	3.7343e-41
187	0x0000478f	2.567e-41
188	0x8000dfc3	-8.027e-41
189	0x800122c9	-1.04314e-40
190	0x0000911a	5.2053e-41
191	0x80005b02	-3.2647e-41
192	0x8000120d	-6.475e-42
193	0x00013815	1.11954e-40
194	0x800033fd	-1.865e-41
195	0x00013257	1.09894e-40
196	0x00012d7a	1.0815e-40
197	0x000097b1	5.4417e-41
198	0x80019aad	-1.47323e-40
199	0x00004339	2.4115e-41
200	0x00013210	1.09795e-40
201	0x0000d7b3	7.7378e-41
202	0x8000ace9	-6.2028e-41
203	0x8001acec	-1.53868e-40
204	0x0000e302	8.1435e-41
205	0x0000a360	5.8608e-41
206	0x00010b66	9.5924e-41
207	0x8000c082	-6.9059e-41
208	0x8000cc7f	-7.336e-41
209	0x000025d2	1.3567e-41
210	0x00004708	2.5481e-41
211	0x80001ba9	-9.923e-42
212	0x0000b845	6.6103e-41
213	0x00000441	1.526e-42
214	0x00007574	4.2134e-41
215	0x0000c070	6.9034e-41
216	0x800158e1	-1.23719e-40
217	0x80004d62	-2.776e-41
218	0x0000d2f2	7.5673e-41
219	0x000056bd	3.1116e-41
220	0x00017070	1.3217e-40
221	0x8001ea82	-1.75961e-40
222	0x80008908	-4.9158e-41
223	0x80013d6f	-1.13874e-40
224	0x8001da92	-1.70244e-40
225	0x800149c9	-1.18305e-40
226	0x80004fe4	-2.866e-41
227	0x00003b52	2.128e-41
228	0x00004f46	2.8438e-41
229	0x80010eb2	-9.7107e-41
230	0x00014a73	1.18543e-40
231	0x80008c62	-5.036e-41
232	0x8000df1f	-8.0041e-41
233	0x8000f9f7	-8.967e-41
234	0x0000c3b8	7.021e-41
235	0x00002a33	1.5138e-41
236	0x8000838d	-4.7192e-41
237	0x80009f6b	-5.7188e-41
238	0x8000c1c9	-6.9517e-41
239	0x000040b8	2.3217e-41
240	0x0000b9b5	6.6619e-41
241	0x80005786	-3.1397e-41
242	0x80007eba	-4.5461e-41
243	0x8000c349	-7.0055e-41
244	0x80000d36	-4.739e-42
245	0x00002356	1.2676e-41
246	0x80006f51	-3.9933e-41
247	0x80004f14	-2.8368e-41
248	0x8000b62e	-6.5354e-41
249	0x0000a763	6.0047e-41
250	0x0000c41b	7.035e-41
251	0x0000e14b	8.082e-41
252	0x0000bc9e	6.7663e-41
253	0x00011c4a	1.01984e-40
254	0x0000b8d9	6.6311e-41
255	0x00016869	1.29291e-40

module.conv2.bias f4 [32]
0	0x95eb8632	-9.512747e-26
1	0xbc3e6345	-0.011620347
2	0x3c083cdf	0.008315294
3	0x3c39f4d4	0.0113498755
4	0x3d12b74a	0.03581933
5	0x3cc17b0b	0.023618242
6	0x3d7eb4a1	0.06218398
7	0xbc96b366	-0.01839609
8	0x3d2dd534	0.042439654
9	0x3d242ea9	0.04008356
10	0x3cb6205f	0.022232233
11	0x9fa4ef9a	-6.985309e-20
12	0x3d1a7944	0.037713304
13	0x3d675849	0.05648068
14	0xbd073929	-0.033013497
15	0x3c56d8db	0.013113226
16	0x3c855651	0.01627651
17	0xb03a3431	-6.7740574e-10
18	0x3c07c271	0.008286105
19	0xb17c409d	-3.6707555e-09
20	0xbce5a9dd	-0.028035099
21	0xad631979	-1.2909112e-11
22	0x97570fa3	-6.9489983e-25
23	0xbc28bd03	-0.01029897
24	0xbc72db11	-0.014822737
25	0x3cbee53c	0.023302667
26	0x3c3b4ae9	0.011431434
27	0x3c488157	0.012237868
28	0x3c9c7afa	0.019101609
29	0x3d5ae919	0.053444955
30	0x3d32dfe9	0.04367057
31	0xa97e755c	-5.6501123e-14

module.conv3.weight f4 [32, 32, 3, 3]
0	0x8000ff2f	-9.1543e-41
1	0x0000fa0f	8.9704e-41
2	0x8000ce5c	-7.4028e-41
3	0x80013159	-1.09538e-40
4	0x00001ed4	1.1059e-41
5	0x0000d918	7.7879e-41
6	0x0000e31c	8.1471e-41
7	0x80004e1f	-2.8025e-41
8	0x00002c93	1.599e-41
9	0xbd095193	-0.03352506
10	0x3c7af7b8	0.01531785
11	0x3d814b79	0.063132234
12	0xbc995f7a	-0.018722285
13	0x3ce8a84f	0.028400568
14	0x3cbbd3f2	0.022928212
15	0x3d659a38	0.056055278
16	0x3c9183e6	0.01776309
17	0x3c23e750	0.01000388
18	0x3d4252d7	0.047442283
19	0x3c420f7b	0.011844511
20	0x3d08dd30	0.033414066
21	0x3d06cec7	0.032912042
22	0xbb972df8	-0.004613634
23	0xbbd96e50	-0.0066354647
24	0x3c5b30f4	0.013378371
25	0xbc48a4cf	-0.012246325
26	0xbca9324c	-0.020653866
27	0xbcec003b	-0.028808704
28	0x3c1e18ef	0.009649499
29	0x3c46d9a0	0.012136847
30	0xbae2bb9f	-0.0017298347
31	0xbabc9ba3	-0.0014389645
32	0x3c297834	0.0103436
33	0xbd4d090d	-0.05005746
34	0xbcf78c85	-0.030218372
35	0xbc0b751c	-0.008511808
36	0xbcce9605	-0.02521802
37	0xbcb31344	-0.021859773
38	0xbcdce1bb	-0.026963105
39	0xbc080171	-0.008301125
40	0xbbf56dfe	-0.0074899187
41	0xbcb5d1a8	-0.022194698
42	0xb92ffecf	-0.00016784224
43	0xb957c2f3	-0.00020576622
44	0xbc960b32	-0.018315885
45	0xbc7aa6f3	-0.015298593
46	0xbbb48109	-0.0055085463
47	0x3d75fb1f	0.06005394
48	0xbad2e27b	-0.0016089225
49	0x3bce9dbd	0.006305425
50	0x3c9142fa	0.017732132
51	0xbc469359	-0.012120091
52	0xbb9249eb	-0.004464378
53	0x3cb93eae	0.022612896
54	0xbc1fc481	-0.00975144
55	0x3c888908	0.016666904
56	0x3d5de506	0.054173492
57	0xbcca3575	-0.024683693
58	0xbbacb970	-0.0052711293
59	0x3ca2b71a	0.0198627
60	0xbd526625	-0.051366944
61	0xbca05d6f	-0.019575803
62	0x3b0d63d2	0.002157439
63	0x3c9caab0	0.019124359
64	0x3bb963bf	0.0056576426
65	0xbc9d266c	-0.01918336
66	0x3d05332c	0.032519504
67	0x3c28950c	0.010289442
68	0x3ba130f4	0.0049191657
69	0x3d765fc1	0.06014991
70	0x3d1a3a90	0.037653506
71	0x3ba295d3	0.004961708
72	0x3af644ed	0.0018788852
73	0x3cd785cc	0.026308917
74	0x3d98fab7	0.07469695
75	0xbc847ca4	-0.016172715
76	0xbaa0633a	-0.0012236603
77	0x3cb524a6	0.022112202
78	0xbcd3d87f	-0.02586007
79	0x3c9c1bf1	0.019056292
80	0x3cf65299	0.030068683
81	0xbc909574	-0.01764939
82	0xb9aa0d86	-0.00032435003
83	0x3c2ec036	0.010665944
84	0xbc1da8e4	-0.009622786
85	0xbd0899bd	-0.03334974
86	0x3c9159a0	0.017742932
87	0xbab6ae85	-0.0013937509
88	0xbc9f27f9	-0.01942824
89	0x3a5e1130	0.0008471189
90	0xbcfdcec2	-0.030982379
91	0xbc15f514	-0.009152669
92	0x3d48ae05	0.048994083
93	0xbc38da4f	-0.011282518
94	0x3ceb0427	0.028688503
95	0x3c5c4f2b	0.0134466095
96	0xbc45e09d	-0.012077478
97	0x3cbc8e3f	0.023017047
98	0x3c31d877	0.010854832
99	0x00008066	4.606e-41
100	0x800054e1	-3.0449e-41
101	0x00008372	4.7154e-41
102	0x0000d569	7.6557e-41
103	0x80010e46	-9.6956e-41
104	0x80004b88	-2.7096e-41
105	0x0000bc08	6.7453e-41
106	0x80007ed7	-4.5502e-41
107	0x0000019d	5.79e-43
108	0x3cd18fde	0.025581297
109	0xbc2879d8	-0.010282956
110	0x3c8d219d	0.017227942
111	0xbb51b74b	-0.003200012
112	0x3c039b9d	0.008032707
113	0x3c6021b9	0.013679915
114	0x3c2c8e20	0.010531932
115	0x3c2e6d18	0.010646127
116	0x3d1001e0	0.03515804
117	0xbcac64c6	-0.021044146
118	0xbc113b12	-0.008864181
119	0x3c642c74	0.013926614
120	0xbb9cbb8e	-0.0047831004
121	0x3b837c43	0.004012616
122	0x3ca1c508	0.019747272
123	0xbc4f9778	-0.01267039
124	0x3b8f12aa	0.0043662386
125	0x3c160002	0.009155275
126	0x3c595a9f	0.013266235
127	0x3c84fae1	0.01623291
128	0x3d3df54e	0.04637652
129	0xbc081522	-0.00830582
130	0x3c2fd555	0.010732015
131	0x3cfc8e18	0.030829474
132	0xbd2e9eeb	-0.042632025
133	0x3b3139f6	0.0027042604
134	0x3ce9ef32	0.02855644
135	0xbd570b67	-0.05250111
136	0x3c09ae31	0.008403347
137	0x3d99ff1c	0.075193614
138	0xbd167dd8	-0.036741108
139	0x3d0a156d	0.03371184
140	0x3cc33cff	0.023832796
141	0xbcf4e51d	-0.029894406
142	0x3c01b26d	0.007916075
143	0x3cef6a8d	0.029225612
144	0xbcd190b4	-0.025581695
145	0x3c994b12	0.018712554
146	0x3d3d473e	0.04621052
147	0xbcc2e5bd	-0.023791188
148	0x3baddffa	0.005306241
149	0x3c9918ec	0.018688641
150	0xbd66e6ae	-0.056372337
151	0xbc88dcda	-0.016706873
152	0x3c02c337	0.007981113
153	0x00007321	4.13e-41
154	0x800060b8	-3.4696e-41
155	0x8000dbde	-7.8873e-41
156	0x80008c34	-5.0295e-41
157	0x00005844	3.1664e-41
158	0x00005111	2.9081e-41
159	0x800061a8	-3.5032e-41
160	0x800006b5	-2.406e-42
161	0x00002c62	1.5922e-41
162	0xbca5fe13	-0.020262754
163	0xbd06825b	-0.03283916
164	0x3cf83174	0.030297019
165	0x38bf0ef4	9.110375e-05
166	0xbb37b89f	-0.0028033627
167	0x3cf4b81f	0.029872952
168	0xbc7e91ab	-0.01553766
169	0x3cafeeb8	0.021476135
170	0xbcaf3d53	-0.021391546
171	0x80007a98	-4.3978e-41
172	0x800027c7	-1.427e-41
173	0x80010279	-9.2723e-41
174	0x00010bb6	9.6037e-41
175	0x8000faf7	-9.0029e-41
176	0x8000dda0	-7.9504e-41
177	0x00010eb2	9.7107e-41
178	0x80006767	-3.7094e-41
179	0x000197f2	1.46343e-40
180	0xbcf92e3a	-0.03041755
181	0xbd124704	-0.035712257
182	0xbe0c14c0	-0.1367979
183	0xbd1abf9f	-0.0377804
184	0x3c7323a2	0.0148400385
185	0xbccab7f3	-0.024745917
186	0xbe0dff07	-0.13866816
187	0xbd15ec15	-0.0366021
188	0xbc55307b	-0.013012047
189	0x800129c3	-1.06817e-40
190	0x800110f3	-9.7916e-41
191	0x8000c2da	-6.99e-41
192	0x000069b7	3.7923e-41
193	0x8000b1ed	-6.3828e-41
194	0x0000a464	5.8972e-41
195	0x80004171	-2.3476e-41
196	0x0000060d	2.17e-42
197	0x8000bcd3	-6.7737e-41
198	0x0000ec8f	8.4861e-41
199	0x0000c2ec	6.9925e-41
200	0x0000df60	8.0132e-41
201	0x80001f5c	-1.125e-41
202	0x80003c93	-2.173e-41
203	0x8000441a	-2.443e-41
204	0x00005922	3.1975e-41
205	0x8000c082	-6.9059e-41
206	0x800124b2	-1.04999e-40
207	0x3b833efb	0.0040053106
208	0x3cad32ca	0.021142382
209	0x3d8e5596	0.06949918
210	0xbbfa08b5	-0.0076304325
211	0x3a450d0a	0.00075168966
212	0x3cbc3db1	0.022978636
213	0xbd03262e	-0.032018833
214	0xbc5ccdb1	-0.013476775
215	0x3c685888	0.014181264
216	0xbc9d84ce	-0.019228365
217	0xbb683894	-0.0035434114
218	0x3cab19ff	0.02088642
219	0xbc0aa325	-0.008461748
220	0x3c14e458	0.0090876445
221	0x3d096c10	0.033550322
222	0xbcb5367a	-0.022120703
223	0x3b23be03	0.0024985082
224	0x3ced3d7f	0.028959988
225	0x3ba2fc00	0.0049738884
226	0xbc3d52e9	-0.011555412
227	0x3ca649a7	0.020298792
228	0x3c52864e	0.012849404
229	0x3ba80665	0.0051277154
230	0x392679f1	0.0001587642
231	0xbc04590a	-0.008077869
232	0x3bebe69f	0.007199123
233	0xbc282b54	-0.0102642365
234	0xbbe24669	-0.006905366
235	0x3d08d5ed	0.03340714
236	0x3dfd9288	0.12381464
237	0x3b9b3282	0.0047362456
238	0xbc160fd6	-0.009159049
239	0x3d0cae78	0.034346074
240	0x3d02f20e	0.031969123
241	0x3b0b5727	0.0021261664
242	0x3c847e16	0.016173404
243	0xbc554f83	-0.013019445
244	0x3c8edf29	0.017440395
245	0x3d0e0297	0.03467044
246	0xbceb0dfb	-0.02869319
247	0xbc57b7cb	-0.013166378
248	0x3a184c6f	0.00058097293
249	0xbd70aebc	-0.05876039
250	0xbcb03508	-0.021509662
251	0xbc4d9e66	-0.012549972
252	0xbcf5cf11	-0.030005964
253	0x3c9b305c	0.018943958
254	0x3da02122	0.078188196
255	0xbccae9aa	-0.024769623

module.conv3.bias f4 [32]
0	0x3d12a08e	0.035797648
1	0x3c42a3d1	0.011879877
2	0x3d1ad6e1	0.03780258
3	0x3cee7b04	0.029111393
4	0x3c9c0f52	0.019050274
5	0xaa7ff9c6	-2.2735207e-13
6	0xbcd1709a	-0.025566388
7	0x3d269305	0.040667553
8	0x3cbb52b7	0.02286659
9	0x3d30feac	0.043211624
10	0xbaa8cbd6	-0.0012878131
11	0x3d16a373	0.03677697
12	0xbabcaaeb	-0.0014394199
13	0x3c44a8d0	0.012003139
14	0xb2c3a85c	-2.2777549e-08
15	0x3d4c26f5	0.04984184
16	0xbb51192d	-0.0031905875
17	0xbce270d7	-0.027641697
18	0xa2766d99	-3.3397237e-18
19	0xbce7a6a1	-0.028277697
20	0x3d09c622	0.03363622
21	0xa767e10d	-3.217969e-15
22	0x3c8a3abf	0.016873715
23	0x3d45e65e	0.0483154
24	0x9e666e5d	-1.2198921e-20
25	0x3bc3b37b	0.0059723235
26	0x3d51023d	0.051027525
27	0xae15113e	-3.3893992e-11
28	0xbc96e8ed	-0.018421615
29	0xba0c254a	-0.00053461327
30	0x3cc9cf20	0.024634898
31	0xa7dd2b6a	-6.138689e-15

module.conv4.weight f4 [32, 32, 3, 3]
0	0x3c18fb04	0.009337191
1	0x3cc5b0b1	0.024132105
2	0x3d484b52	0.048899956
3	0xb9a2aeb3	-0.0003102921
4	0x3c50ad79	0.012736672
5	0x3ca6ba6d	0.020352567
6	0xba84f3a8	-0.0010143416
7	0x3b5af0df	0.003340773
8	0x3c88c33f	0.016694663
9	0x3bd385aa	0.006455143
10	0x3c891bb0	0.016736835
11	0x3d535e89	0.051603828
12	0x3c952c74	0.018209673
13	0xbc253095	-0.010082384
14	0x3c79ce40	0.015246928
15	0x3c8cd5b7	0.01719175
16	0x3c2cf0b9	0.01055544
17	0x3d1570fc	0.036484703
18	0x3c161742	0.0091608185
19	0x3ca3db3e	0.020002004
20	0x3cd0b6d8	0.025477812
21	0x3c0e5c67	0.008689023
22	0x3b2d0df0	0.0026406012
23	0xbc84d4a4	-0.016214676
24	0x3c3bc71d	0.0114610465
25	0xbb2553da	-0.0025226981
26	0x3ccd989a	0.02509718
27	0xbc167b72	-0.009184705
28	0xbb1f4894	-0.0024304735
29	0x3c27214d	0.010200811
30	0xb998d500	-0.00029150397
31	0xbaf16fb2	-0.0018420129
32	0x3b97c1f1	0.004631274
33	0xbb1637f4	-0.0022921534
34	0x3b9b8f4f	0.0047473083
35	0x3bb100b4	0.005401695
36	0x3c3ed0cf	0.011646464
37	0x3ba30f2b	0.0049761734
38	0x3cb3a0c9	0.021927254
39	0x3c592bf2	0.013255106
40	0xbb3cf5b1	-0.0028832967
41	0x3bba3cf6	0.0056835366
42	0xbb7bee1f	-0.0038441492
43	0xbb6ebac9	-0.003642725
44	0x3be3e753	0.006955066
45	0x800016fd	-8.247e-42
46	0x80009ab4	-5.5497e-41
47	0x80001e0d	-1.078e-41
48	0x0001122c	9.8354e-41
49	0x0000a34b	5.8578e-41
50	0x8000487c	-2.6002e-41
51	0x0000e898	8.3439e-41
52	0x80000cad	-4.547e-42
53	0x8000ee0b	-8.5394e-41
54	0x3c7aef24	0.015315805
55	0x3c199deb	0.0093760295
56	0x3d4559bf	0.04818129
57	0x3be90564	0.0071112383
58	0x3c85738c	0.016290449
59	0x3c6f10ca	0.014591405
60	0x3be4f3e4	0.006987082
61	0x3b61621e	0.0034390758
62	0x3c694232	0.014236974
63	0x3cac8a90	0.021062165
64	0x3bd2af84	0.0064296145
65	0x3caf2d13	0.021383798
66	0x3c64a4d1	0.013955311
67	0x3c23e912	0.010004299
68	0x3bf7fe4c	0.0075681563
69	0x3cae8154	0.021301903
70	0x3bb75450	0.0055947676
71	0x3d0cb7d6	0.034355007
72	0xbbb5cdbb	-0.0055482066
73	0x3bbdea17	0.005795728
74	0x3b1a41ce	0.0023537758
75	0xbc63ad65	-0.013896321
76	0x3ac0ae62	0.0014700408
77	0x3bcc50f8	0.006235238
78	0xbc62fbc1	-0.013853968
79	0x3ca5de77	0.020247681
80	0x3d98d617	0.074627094
81	0x3c0ab35e	0.008465616
82	0x3c5dd1cd	0.01353879
83	0x3bce32e6	0.0062926887
84	0x3aa82600	0.0012828708
85	0x3bf18ee7	0.0073717716
86	0x3c360d96	0.011111638
87	0x3b309c59	0.002694866
88	0x3c018992	0.0079063345
89	0x3c1a2441	0.009408058
90	0x3c842ae8	0.01613374
91	0x3c8370a4	0.016044922
92	0x3ccfb6fb	0.025355807
93	0x3c3e7828	0.011625327
94	0x3c7650dd	0.015033928
95	0x3a9d4551	0.0011998807
96	0x3caffd0f	0.021482972
97	0x3c607299	0.013699197
98	0x3d287e80	0.041136265
99	0x3be7801a	0.0070648314
100	0x3b129a2a	0.002236972
101	0x3d39043f	0.045170065
102	0xbb507911	-0.0031810442
103	0xbbbf70cb	-0.0058423034
104	0x3a4dfa55	0.0007857432
105	0x39840899	0.00025183408
106	0xbc219aaf	-0.00986354
107	0xbc92e74a	-0.017932553
108	0xbb80176b	-0.0039090416
109	0xbb986cae	-0.0046516275
110	0xba82e7f9	-0.0009987346
111	0xbbe52804	-0.0069932956
112	0xbbcfa26e	-0.006336502
113	0xb82a44e9	-4.0595336e-05
114	0x3b9b11ea	0.00473236
115	0x3c2dd056	0.010608753
116	0x3ce55402	0.02799416
117	0x3d03f595	0.032216627
118	0x3cc5f0eb	0.02416273
119	0x3d0d4420	0.034488797
120	0x3c71aa93	0.014750141
121	0x3c29ac2c	0.01035599
122	0x3c7ebb04	0.015547518
123	0x3b6df855	0.0036311348
124	0x3c257a03	0.010099891
125	0xbc260db5	-0.010135104
126	0x8000a740	-5.9998e-41
127	0x8000b819	-6.6042e-41
128	0x8000a64a	-5.9653e-41
129	0x000005f3	2.134e-42
130	0x0000182d	8.673e-42
131	0x000095bb	5.3713e-41
132	0x00002690	1.3834e-41
133	0x8000a9a6	-6.0858e-41
134	0x00004e56	2.8102e-41
135	0x3bf49ba9	0.007464845
136	0x3839882e	4.4234264e-05
137	0x3ba68de4	0.0050828326
138	0xbbc5757a	-0.006025967
139	0xba8445c4	-0.0010091593
140	0x3a1f2d8b	0.0006072155
141	0x3bc142eb	0.00589787
142	0x3b0c25e0	0.002138488
143	0x3cb35214	0.021889724
144	0x3d274b95	0.040843565
145	0x3c882192	0.01661757
146	0x3c46380c	0.012098324
147	0x3ce21ec0	0.027602553
148	0x3cadff68	0.021239951
149	0xbb809129	-0.0039235544
150	0x3cdb040f	0.026735334
151	0xbbf3de48	-0.0074422695
152	0xbd115d5c	-0.035489425
153	0x3b0020df	0.0019550843
154	0xbc4904f3	-0.012269246
155	0x3c8696dd	0.01642936
156	0xba8805cb	-0.0010377703
157	0xbbd1a96c	-0.0063983705
158	0x3beb3614	0.0071780775
159	0x3b31f7dc	0.0027155792
160	0xbb9e50d1	-0.0048314114
161	0x3c80e373	0.015733456
162	0x80003b88	-2.1356e-41
163	0x80011d60	-1.02373e-40
164	0x8000fe8c	-9.1314e-41
165	0x80006202	-3.5159e-41
166	0x80011a6e	-1.01317e-40
167	0x000048ca	2.6112e-41
168	0x000143d5	1.16169e-40
169	0x00013e3b	1.1416e-40
170	0x8001360c	-1.11224e-40
171	0x3ca27ed0	0.01983586
172	0x3c8a9f94	0.016921796
173	0x3d27996c	0.0409178
174	0x39a036a4	0.0003055829
175	0x3c2eb8ff	0.010664224
176	0x3d0359fb	0.032068234
177	0x3c0bf140	0.008541405
178	0x3bbe91c1	0.005815715
179	0x3d15d67b	0.036581498
180	0xbc589ddc	-0.01322123
181	0xbbfb3199	-0.0076658246
182	0xba7f50a5	-0.0009739495
183	0xbc725320	-0.014790326
184	0xbbef5c4c	-0.007304704
185	0x3b2a0039	0.0025940074
186	0xbbd40f83	-0.0064715757
187	0x3b8e2f57	0.0043391394
188	0x3c706364	0.014672134
189	0x8000cc0f	-7.3202e-41
190	0x8000e0f7	-8.0702e-41
191	0x8000a51a	-5.9227e-41
192	0x800101b3	-9.2445e-41
193	0x8000d9d8	-7.8148e-41
194	0x8000e2c1	-8.1344e-41
195	0x000127be	1.06092e-40
196	0x0000f4b4	8.7783e-41
197	0x8000d9ca	-7.8128e-41
198	0xbcb727c7	-0.022357835
199	0xbc469433	-0.012120294
200	0x3ae22eda	0.0017256394
201	0xbcb0cb9f	-0.02158147
202	0xbc6c0a4b	-0.014406751
203	0xbb4c2286	-0.0031148507
204	0xbc8d9585	-0.01728321
205	0x3aac031a	0.0013123483
206	0x3d394ac4	0.045237318
207	0x3cf18644	0.029482968
208	0x3b072e94	0.0020627128
209	0x3b9780c9	0.0046235067
210	0x3bf68a35	0.0075238
211	0xbc12b8a5	-0.0089551555
212	0x3bc8cfa8	0.00612827
213	0x3c03a1ea	0.008034209
214	0xbb0d155a	-0.002152762
215	0x3c9646b6	0.018344264
216	0x9ddfd85c	-5.925132e-21
217	0x9dd93c45	-5.750174e-21
218	0x9dcf2495	-5.483027e-21
219	0x9deda5ac	-6.290468e-21
220	0x9de53432	-6.0669764e-21
221	0x9dd3f235	-5.610167e-21
222	0x9e04479d	-7.002831e-21
223	0x9e054564	-7.055311e-21
224	0x9e084444	-7.213897e-21
225	0x3c90b545	0.017664561
226	0x3be0f3d0	0.006865002
227	0x3cc64494	0.024202622
228	0x3cb4cb21	0.022069516
229	0x3abc4298	0.0014363108
230	0x3ca08669	0.019595342
231	0x3c199bb3	0.0093755005
232	0xbb8893af	-0.004167996
233	0x3cfde9a9	0.030995207
234	0x3bdf1726	0.0068081794
235	0x3b936a1e	0.004498734
236	0x3ceee2df	0.029160915
237	0xbb6a50ee	-0.0035753804
238	0xbc1d04a9	-0.009583631
239	0x3c283ee2	0.010268899
240	0x3bccac39	0.0062461165
241	0x3be04d1a	0.0068451287
242	0x3cfc880b	0.03082659
243	0x0000cc93	7.3387e-41
244	0x000048b7	2.6085e-41
245	0x0000aa35	6.1059e-41
246	0x800100a9	-9.2072e-41
247	0x0000874c	4.8535e-41
248	0x00009bae	5.5847e-41
249	0x000059fa	3.2278e-41
250	0x000002f4	1.06e-42
251	0x80006eab	-3.97e-41
252	0x3c7811b4	0.0151409395
253	0x3c59cc25	0.013293301
254	0x3d0957e1	0.033531073
255	0x3a9109fc	0.0011065598

module.conv4.bias f4 [32]
0	0xba737cd9	-0.0009288318
1	0x3d56ab5a	0.052409507
2	0x3c30afce	0.010784103
3	0x3c4acc64	0.012377832
4	0xbb1a0401	-0.0023500922
5	0xb5a0685f	-1.1951305e-06
6	0xbb35242a	-0.0027639964
7	0x3cb9534f	0.022622732
8	0x3c1a4ba3	0.009417447
9	0xbc20e6fa	-0.009820694
10	0x3c06e79a	0.008233929
11	0x96734109	-1.9649905e-25
12	0x3c1558dd	0.009115425
13	0xbaad54b4	-0.0013224096
14	0xbd069f79	-0.03286693
15	0x3c654503	0.013993504
16	0xbd2aebe2	-0.04172886
17	0xbcf73b38	-0.030179605
18	0x3b05c9cf	0.0020414477
19	0xbc9471de	-0.018120702
20	0x3c903594	0.017603673
21	0xbb460cc8	-0.003022002
22	0x3c9caeab	0.019126257
23	0xbabc7722	-0.0014378766
24	0x3c0ca85a	0.00858506
25	0xbc10220e	-0.008797182
26	0x3bf0a34b	0.007343685
27	0x3d59ff7f	0.053222176
28	0xb87c7a20	-6.019522e-05
29	0x3d1f7e9f	0.038939115
30	0xbcd858d5	-0.026409546
31	0x3cf5fc51	0.03002754

module.conv5.weight f4 [32, 64, 3, 3]
0	0x3b9a1674	0.0047023837
1	0xb9b0b318	-0.0003370277
2	0x3ad86a72	0.0016511215
3	0x3c6ae4e7	0.014336801
4	0xbb27a874	-0.0025582584
5	0x3a4cbceb	0.00078101334
6	0xbbe37cc6	-0.0069423644
7	0x3c81b626	0.015833925
8	0xbc62e4ce	-0.013848497
9	0x3c61adee	0.013774378
10	0x3b19a8ad	0.0023446486
11	0xbad60c6e	-0.0016330609
12	0x3b48f15c	0.003066144
13	0xbab22525	-0.0013591392
14	0xbc5ad8ee	-0.013357384
15	0x3b716bb9	0.003683789
16	0xbc6e1309	-0.0145309055
17	0x38acaa50	8.233322e-05
18	0x3d07a001	0.033111576
19	0x3ae941f1	0.0017796141
20	0xb8ed2178	-0.00011307275
21	0x3b0e1383	0.002167911
22	0xbc732cbd	-0.014842209
23	0x3c3f0f0c	0.011661302
24	0x3ca1af80	0.019737005
25	0xbd1ee022	-0.03878797
26	0xbb431456	-0.002976676
27	0xbb026890	-0.001989875
28	0x3b937ca8	0.004500944
29	0x3ca026d9	0.019549774
30	0xbcb23f0e	-0.021758582
31	0xb97cc65d	-0.00024106489
32	0x3b67d65d	0.0035375573
33	0xbc8a87fa	-0.016910542
34	0xbc04430c	-0.008072626
35	0xbabcf72e	-0.0014416927
36	0x3d577503	0.052601825
37	0x3bc82155	0.006107489
38	0xbbb072ea	-0.0053847926
39	0x3bb1c214	0.0054247472
40	0x3be9f942	0.0071403095
41	0x39a0e5ce	0.00030688796
42	0x3b8a54f0	0.004221551
43	0xbcb936bf	-0.022609113
44	0xbb85e3c9	-0.004085992
45	0x8000a490	-5.9034e-41
46	0x000001d7	6.6e-43
47	0x800017bd	-8.516e-42
48	0x0001014c	9.2301e-41
49	0x80004519	-2.4788e-41
50	0x80006e27	-3.9515e-41
51	0x00006268	3.5302e-41
52	0x0000d2ee	7.5667e-41
53	0x80010a9b	-9.564e-41
54	0x3c97f98d	0.018551612
55	0xbaa6853a	-0.00127045
56	0xbbb2beaf	-0.00545486
57	0x3b9563b0	0.004559003
58	0x3b1cf976	0.0023952401
59	0xbc355041	-0.011066497
60	0x3c4d4160	0.012527794
61	0xbcac8e36	-0.021063905
62	0x3c1e6f03	0.009670022
63	0x3c9dfddc	0.019286089
64	0x3b3467ad	0.0027527616
65	0xbb079bf3	-0.0020692318
66	0xbc946173	-0.018112874
67	0x3ca7436b	0.02041789
68	0xbbd0af9d	-0.006368591
69	0x3c927b37	0.017881019
70	0x3a339c9d	0.00068516453
71	0x3bcd8740	0.0062722266
72	0xbc6648ee	-0.014055474
73	0xbcea0cc8	-0.028570548
74	0xbb638d16	-0.0034721545
75	0xbc525b36	-0.012839129
76	0xbcacacb5	-0.021078447
77	0x3bd8df37	0.006618406
78	0xbcc70dba	-0.024298538
79	0xbc30da5a	-0.010794247
80	0x3c3b5eb2	0.011436151
81	0xbc14bbc2	-0.009077968
82	0xbcfacd04	-0.030615337
83	0xbcbd7c09	-0.023130434
84	0xbc12381e	-0.008924512
85	0xbc4216ab	-0.011846225
86	0xbd340147	-0.04394653
87	0xbc00f0c8	-0.007869907
88	0x3ac59217	0.0015073445
89	0xbc2566ab	-0.010095279
90	0x3c0af068	0.008480169
91	0x3bc467b5	0.005993808
92	0xbb2d8917	-0.0026479417
93	0x3c57cd81	0.013171555
94	0x3b6d3430	0.0036194436
95	0xbb31427b	-0.0027047682
96	0x3c44ae57	0.0120044565
97	0x39d5261c	0.0004065492
98	0x3ba3bb49	0.0049966914
99	0xbb557917	-0.0032573396
100	0xbc1fcc8c	-0.009753358
101	0xb9ea5f9a	-0.00044703187
102	0xbcce42ee	-0.025178399
103	0x3c0b475d	0.008500901
104	0xba680082	-0.00088501733
105	0xbabdead2	-0.0014489538
106	0x3af5fe13	0.0018767737
107	0xba59d807	-0.00083100836
108	0x3c4cc09a	0.012497092
109	0x3bd593a0	0.0065178424
110	0x3c362e14	0.011119384
111	0xba849563	-0.0010115321
112	0x3b7504ee	0.0037386972
113	0x3bdc3e05	0.0067212605
114	0x3a88ec19	0.0010446339
115	0xbbf65355	-0.007517258
116	0x3b2e297b	0.0026575017
117	0xbc0e49c9	-0.008684584
118	0x3bb9c5e3	0.005669342
119	0xbbfe6f5d	-0.0077647404
120	0xbbf7ed7c	-0.007566152
121	0xbc8afe5d	-0.016966993
122	0xbc36604a	-0.011131356
123	0x3b4c6c2f	0.0031192412
124	0x3b773396	0.0037719957
125	0xbc360038	-0.011108451
126	0x80007ddb	-4.5148e-41
127	0x0001d05e	1.66584e-40
128	0x001b9857	2.534208e-39
129	0x0014be48	1.90497e-39
130	0x8000bba9	-6.732e-41
131	0x000f4461	1.402062e-39
132	0x80008cda	-5.0528e-41
133	0x800083bf	-4.7262e-41
134	0x80001612	-7.917e-42
135	0xbb5d02b4	-0.0033723535
136	0xb8a98304	-8.0829515e-05
137	0xbc21a68e	-0.00986637
138	0x3b972c13	0.0046134084
139	0x3bb278a9	0.0054465127
140	0xbc0b9fde	-0.008522002
141	0xbb0b82e1	-0.0021287727
142	0xbb7e065e	-0.003876112
143	0xba9aec77	-0.001181974
144	0xbc219411	-0.009861962
145	0x3b1e4648	0.0024150778
146	0xbc27ba83	-0.010237339
147	0x3b0515cf	0.0020307188
148	0x3cda266a	0.026629645
149	0xbbabacc1	-0.0052390997
150	0x3be83727	0.007086653
151	0x3be2e27a	0.0069239708
152	0xba883de4	-0.0010394421
153	0x3c4b5b1a	0.012411857
154	0x3c88aa0b	0.016682645
155	0x3c1ce92b	0.009577076
156	0xbb9871c8	-0.0046522357
157	0x3c68e45d	0.014214602
158	0x3c62dad1	0.013846115
159	0x3cce379f	0.025173007
160	0xbca3d4bf	-0.019998906
161	0xbb9d9891	-0.004809447
162	0x800027a6	-1.4223e-41
163	0x00009865	5.4669e-41
164	0x00006178	3.4965e-41
165	0x80003e63	-2.238e-41
166	0x800010d1	-6.033e-42
167	0x00000595	2.002e-42
168	0x00002925	1.476e-41
169	0x80000f82	-5.563e-42
170	0x80005d1d	-3.3403e-41
171	0xbc36b8c5	-0.011152451
172	0xba19dacf	-0.0005869092
173	0x3b082bdf	0.0020778102
174	0xb98fbbe2	-0.0002741507
175	0xbb850171	-0.0040590097
176	0xbc3d630e	-0.011559261
177	0x3c7f1c1f	0.015570669
178	0xba01f3e7	-0.0004957304
179	0xbbcfc934	-0.006341124
180	0x3be90aea	0.0071118968
181	0x3b69ce9b	0.0035676125
182	0xba6ab573	-0.00089534296
183	0x3c27eca8	0.010249294
184	0x3ba4964b	0.005022799
185	0xbb5e66ac	-0.003393571
186	0x3ce2657c	0.027636282
187	0x3cc04549	0.023470538
188	0x3c7c17cd	0.015386534
189	0x800018ce	-8.898e-42
190	0x00005c4c	3.311e-41
191	0x000004de	1.746e-42
192	0x800002b9	-9.77e-43
193	0x00003b92	2.137e-41
194	0x80005baa	-3.2883e-41
195	0x80004c44	-2.7359e-41
196	0x0000c516	7.0701e-41
197	0x800086a9	-4.8307e-41
198	0x3c05094f	0.008119895
199	0x3c0b09b6	0.008486202
200	0x3c39814a	0.011322329
201	0x3c3e47c3	0.011613789
202	0x3adb7cce	0.0016745569
203	0x3cd769e5	0.026295612
204	0x3bda894e	0.0066692
205	0xbcafeac4	-0.02147425
206	0x3beb4d65	0.007180857
207	0x3c9c8c75	0.019109944
208	0x39f491ee	0.00046648033
209	0xbb171d24	-0.002305814
210	0x3b0ac381	0.0021173658
211	0x3c4ab22a	0.012371579
212	0x3bd9990e	0.00664056
213	0x3be7dcea	0.0070758956
214	0x3d029804	0.031883255
215	0x3c00f220	0.007870227
216	0x9e2bc9d2	-9.0944e-21
217	0x9e2b7efa	-9.078923e-21
218	0x9e2cf943	-9.15715e-21
219	0x9e2255bd	-8.593939e-21
220	0x9e209397	-8.50085e-21
221	0x9e0eda0f	-7.562511e-21
222	0x9e1e71a4	-8.387951e-21
223	0x9e215cd8	-8.542469e-21
224	0x9e19e40c	-8.1469115e-21
225	0x3c5a9db4	0.013343263
226	0x3b7c8205	0.0038529646
227	0xbc598e96	-0.013278624
228	0x3b9dcc9d	0.0048156516
229	0x3ac75fa5	0.0015210999
230	0x3c33b6b1	0.01096885
231	0x3b98ce05	0.0046632313
232	0xbc2bd501	-0.010487796
233	0x3a9c3873	0.0011918679
234	0xbba6d0fe	-0.005090832
235	0xbc4a6436	-0.012352994
236	0xbc834cf7	-0.01602791
237	0x3c2f44a4	0.010697518
238	0x3b68d8e9	0.003552968
239	0x3cb36431	0.02189836
240	0x3aaa81be	0.0013008637
241	0x3a709a81	0.00091782963
242	0xbc2dabb1	-0.010600016
243	0x8000734a	-4.1358e-41
244	0x0000248a	1.3108e-41
245	0x00000ef1	5.36e-42
246	0x00004fe5	2.8661e-41
247	0x00007311	4.1278e-41
248	0x00009373	5.2895e-41
249	0x0000211f	1.1882e-41
250	0x800094f7	-5.3439e-41
251	0x80000a3e	-3.674e-42
252	0x3adae193	0.0016699306
253	0x3b7e1f0a	0.0038775825
254	0xbb0a2762	-0.0021080603
255	0x3ad2729d	0.0016055886

module.conv5.bias f4 [32]
0	0xbbe224c4	-0.0069013555
1	0x3ce918f1	0.028454276
2	0x3c9388fc	0.018009655
3	0xb9e4a726	-0.00043612084
4	0x3d155131	0.036454383
5	0xbc088ce0	-0.0083343685
6	0xba466aca	-0.00075690134
7	0x3cb3b408	0.021936432
8	0xbc6380c9	-0.013885685
9	0x3b36ebf1	0.0027911628
10	0xaa0b3d1d	-1.2366883e-13
11	0x3cf08d0f	0.029364137
12	0x3ca20c8a	0.01978137
13	0x3d4aff82	0.049560077
14	0x3c7ef9f2	0.015562521
15	0x3b6b2665	0.003588104
16	0x9aa86957	-6.965336e-23
17	0x3c61df49	0.0137861455
18	0x3ca41865	0.020031163
19	0x3cfedf3e	0.03111231
20	0x3c987204	0.018609054
21	0x3d285200	0.041093826
22	0xbcb82aaf	-0.02248129
23	0x3c94a82b	0.018146595
24	0x3b2b3be2	0.0026128222
25	0x3a5db377	0.00084572233
26	0xb9694d51	-0.00022249414
27	0x3caf289a	0.021381665
28	0xb7711413	-1.4369393e-05
29	0x3c886095	0.016647616
30	0x3c12fc63	0.0089713065
31	0xbc969fa0	-0.018386662

module.conv6.weight f4 [32, 64, 3, 3]
0	0x80004ee4	-2.83e-41
1	0x0000bcc4	6.7716e-41
2	0x80007904	-4.3412e-41
3	0x0000f8d7	8.9267e-41
4	0x8000c95a	-7.2231e-41
5	0x8000ae9c	-6.2638e-41
6	0x8000e181	-8.0896e-41
7	0x8000f4aa	-8.7769e-41
8	0x800099e9	-5.5213e-41
9	0x3c172921	0.0092261145
10	0xbc53e310	-0.012932554
11	0x3bfe89e4	0.0077679027
12	0xbaa42947	-0.0012524509
13	0x3bcabbd9	0.006186944
14	0x3ac92a80	0.0015347749
15	0x3b6b0a9e	0.0035864483
16	0x3cd1a064	0.025589176
17	0x3c56e689	0.013116487
18	0xbc3b7c44	-0.011443201
19	0xbc9a51ce	-0.018837836
20	0xba802c08	-0.0009778747
21	0xbbe4c710	-0.006981738
22	0xbbe60364	-0.007019447
23	0xba176dce	-0.0005776555
24	0xbc26f0ea	-0.010189274
25	0xbca142c8	-0.019685164
26	0xbbc02ea2	-0.005864934
27	0xbbe9d5f9	-0.007136103
28	0x3c988e94	0.018622674
29	0x3c13647b	0.008996124
30	0x3cd5e6dd	0.02611106
31	0x3cbd6ede	0.023124155
32	0xbc91651b	-0.017748406
33	0x3d13d827	0.03609481
34	0x3cf931ef	0.030419318
35	0x3c731419	0.014836335
36	0x3c743511	0.01490523
37	0xbbbd957c	-0.005785642
38	0xbc7ddcc3	-0.015494528
39	0x3ca2b8bc	0.019863479
40	0x3bfd862d	0.0077369423
41	0x3bfadf47	0.0076560113
42	0x39440c33	0.00018696561
43	0xbb1c5d17	-0.0023859197
44	0x3c8ccc49	0.017187255
45	0x3c14d7a9	0.0090846205
46	0x3c1d7cbb	0.009612258
47	0xbb9ff465	-0.004881429
48	0x3c0b33e9	0.008496263
49	0xbb589a0a	-0.0033050799
50	0xb996ef38	-0.0002878846
51	0x3c0c7a6a	0.008574108
52	0xbc36f6fe	-0.011167286
53	0x3c347d76	0.01101624
54	0x3bc45ccb	0.005992507
55	0x3ad43951	0.0016191398
56	0xbbf6d747	-0.0075329873
57	0x3c13fe53	0.009032804
58	0x3c0d00ac	0.008606117
59	0x3a179d6c	0.00057836506
60	0x3b978185	0.004623594
61	0x3acc85ff	0.0015603899
62	0x3b7261cb	0.0036984559
63	0xbbc49c51	-0.0060000797
64	0x3d15e741	0.036597494
65	0x3ca592ec	0.02021166
66	0xbd0aabee	-0.03385537
67	0x3bb9dfff	0.0056724544
68	0xbd1bdd07	-0.038052585
69	0xbd1b878a	-0.037971057
70	0x3b0ab338	0.0021163952
71	0xbd087f6b	-0.03332464
72	0xbc25945a	-0.010106171
73	0x3b02526c	0.0019885553
74	0x3bb5e786	0.0055512814
75	0x3c775993	0.01509704
76	0x3c05fef1	0.008178459
77	0x3ae02b67	0.0017102779
78	0x3d062e02	0.03275872
79	0x3c18cd7a	0.009326333
80	0xbc267063	-0.010158631
81	0xbbe1cc7b	-0.006890831
82	0xbb46a396	-0.0030309907
83	0xbd13d585	-0.0360923
84	0xbac53bc4	-0.0015047719
85	0x3b5591a4	0.003258803
86	0xbc83cf64	-0.016090102
87	0xbb851c2e	-0.004062197
88	0x3b52fa9a	0.0032192827
89	0x3bd855d9	0.0066020307
90	0x3cb6dc8b	0.02232196
91	0x3ca4088d	0.020023609
92	0xbc04f88c	-0.008115899
93	0x3d0f0779	0.034919236
94	0x3c69a96f	0.0142615875
95	0xbd4ee31f	-0.05050957
96	0xbb13a69b	-0.0022529725
97	0xbc5a9b26	-0.013342654
98	0xbd0243d6	-0.031802975
99	0x800115fa	-9.9719e-41
100	0x0000cb68	7.2968e-41
101	0x000097d5	5.4467e-41
102	0x00012326	1.04444e-40
103	0x0000e2fe	8.143e-41
104	0x800063f7	-3.586e-41
105	0x800028d3	-1.4645e-41
106	0x00007f72	4.5719e-41
107	0x8000f5e8	-8.8215e-41
108	0xbcc31d92	-0.023817811
109	0x3d15259e	0.036412828
110	0xbc8b1f1e	-0.016982611
111	0x3c398d59	0.011325204
112	0x3c5000c1	0.012695492
113	0x3c00c56f	0.007859572
114	0xbb1d6d9f	-0.0024021638
115	0xbcab139b	-0.020883372
116	0xbc12aa59	-0.008951747
117	0x3ca28334	0.019837953
118	0xbbec223d	-0.00720623
119	0xbc73169f	-0.014836936
120	0x37d0bf5d	2.4884643e-05
121	0x3c43f4b1	0.011960194
122	0xbc7be8f2	-0.015375363
123	0xbc9032ed	-0.017602408
124	0xbcab3ca4	-0.02090294
125	0x3cc0a69e	0.02351695
126	0x3ce909fe	0.028447147
127	0xbbb3a0ff	-0.0054818387
128	0xbcd8149a	-0.026377011
129	0x3c84e8d6	0.016224306
130	0x3c9ec559	0.019381212
131	0xbbdfbbd6	-0.0068278117
132	0x3bdcedda	0.0067422213
133	0xbc78c895	-0.015184541
134	0x3cc4d510	0.024027377
135	0x3c720ea9	0.014774003
136	0x3aeaae8b	0.0017904801
137	0xbc0a7704	-0.008451227
138	0x3c0806bc	0.008302387
139	0x3bc1d8bd	0.00591573
140	0xbb00518e	-0.001957986
141	0x3c99260e	0.018694904
142	0x3a8be49e	0.0010672992
143	0x3a2f8a75	0.0006696352
144	0x3bb38696	0.0054786904
145	0xba8ff6a7	-0.0010983542
146	0x38f35cde	0.00011604441
147	0x3b3cb5e6	0.0028794943
148	0x3c96b25f	0.0183956
149	0xbba27ac4	-0.0049584825
150	0x3ba35707	0.0049847397
151	0x3c73ea0a	0.014887342
152	0xbb67ebf8	-0.003538845
153	0x000056e7	3.1175e-41
154	0x800014d6	-7.475e-42
155	0x00006391	3.5718e-41
156	0x0000b01d	6.3178e-41
157	0x8000b970	-6.6522e-41
158	0x0000a96a	6.0774e-41
159	0x00006bff	3.8742e-41
160	0x800086ee	-4.8404e-41
161	0x000059a6	3.216e-41
162	0x3c8a0ced	0.016851867
163	0xbc4fcf87	-0.012683756
164	0xbc10681a	-0.008813882
165	0xbbc6095e	-0.006043597
166	0xbc158524	-0.0091259815
167	0xbcb8b597	-0.022547526
168	0x3c99508d	0.018715167
169	0xbc598dd6	-0.013278445
170	0xbcac5ca5	-0.02104027
171	0x00005225	2.9468e-41
172	0x00001e3a	1.0843e-41
173	0x0000fd48	9.086e-41
174	0x0000c7a4	7.1618e-41
175	0x8000ac26	-6.1755e-41
176	0x8000319a	-1.7794e-41
177	0x0000a594	5.9398e-41
178	0x8000b74f	-6.5759e-41
179	0x0000e7d9	8.3171e-41
180	0xbbeb7007	-0.0071849856
181	0x3c806b5c	0.015676193
182	0xbb8b2721	-0.004246608
183	0x3b18693f	0.002325609
184	0x3cb26e20	0.021781027
185	0x3acff514	0.0015865886
186	0x3c8d4aa7	0.017247511
187	0x3befc952	0.0073177004
188	0xbac2657f	-0.0014831274
189	0x8000dec1	-7.9909e-41
190	0x0000e230	8.1141e-41
191	0x8000b163	-6.3634e-41
192	0x0000d93a	7.7926e-41
193	0x80009196	-5.2226e-41
194	0x8000c658	-7.1152e-41
195	0x0000eb2b	8.4362e-41
196	0x0000e825	8.3278e-41
197	0x0000dbbd	7.8827e-41
198	0x80002a57	-1.5189e-41
199	0x00000c75	4.469e-42
200	0x00009f85	5.7225e-41
201	0x00003ff7	2.2946e-41
202	0x80001a3c	-9.411e-42
203	0x0000cee3	7.4217e-41
204	0x00011f51	1.0307e-40
205	0x8000be24	-6.821e-41
206	0x8000cb0f	-7.2844e-41
207	0x3b5a5879	0.0033316894
208	0x3c1afa71	0.009459124
209	0x3be0ada8	0.006856639
210	0x3ca4c2ff	0.020112513
211	0xbc5c1bd0	-0.013434365
212	0xbbbddfc6	-0.005794498
213	0x3b0ebd8d	0.0021780462
214	0x3bae6c5b	0.0053229756
215	0xbb9396fd	-0.004504083
216	0x3b107617	0.0022043043
217	0x3be6aead	0.007039866
218	0xbaa4a395	-0.0012560958
219	0xba4ed958	-0.0007890663
220	0xbaf54e75	-0.0018715399
221	0xbb57c87d	-0.0032925897
222	0x3ba7cf3f	0.005121141
223	0xbb01bf39	-0.0019797815
224	0xbc66b107	-0.014080293
225	0xbb57bcde	-0.003291897
226	0x3d270303	0.040774357
227	0xbc067072	-0.00820552
228	0xbaebab3a	-0.0017980107
229	0x3c59e701	0.0132997045
230	0x3be67544	0.007033022
231	0x3c9b7b26	0.01897962
232	0x3d4ced43	0.050030958
233	0xbbbfafda	-0.0058498206
234	0x3b9f4151	0.0048600812
235	0x3c683a67	0.01417408
236	0x3aa74783	0.0012762401
237	0x3b8a50e8	0.0042210706
238	0xbae6063c	-0.0017549465
239	0xbc1f8ba1	-0.00973788
240	0xbc00ac13	-0.007853526
241	0xba33d9d9	-0.000686077
242	0xbc246bce	-0.010035468
243	0x3a0f4ec5	0.00054667547
244	0x3c417a8b	0.011809002
245	0x3bb6ab4e	0.0055746203
246	0xbc2a5195	-0.010395427
247	0x3c3660ad	0.011131448
248	0x3c14b84b	0.009077142
249	0x3cc9ef53	0.024650251
250	0x3c40b989	0.011762985
251	0xbc0ff0d3	-0.008785444
252	0x3c47a002	0.012184145
253	0x39fbf79f	0.00048058943
254	0x3c0ffd7c	0.008788463
255	0x3ce20d6d	0.027594293

module.conv6.bias f4 [32]
0	0x3ca70c8b	0.020391723
1	0x3d1467d3	0.036231827
2	0x9e8af235	-1.4711493e-20
3	0x9f733678	-5.1502307e-20
4	0x3cd043f1	0.025423022
5	0xbc59ee42	-0.013301434
6	0x3c18287c	0.009286996
7	0xbbfbf772	-0.00768941
8	0xb7d3fdf4	-2.5271416e-05
9	0x3c03eab9	0.008051568
10	0x3bed95c9	0.007250522
11	0x3b89bdb9	0.004203525
12	0x3cdc556e	0.026896205
13	0xa3dff84a	-2.4282863e-17
14	0x3d0ef24a	0.034899034
15	0xa53a7e4d	-1.6175721e-16
16	0xbb6b1514	-0.0035870718
17	0xbb860504	-0.0040899534
18	0x3cd1a89c	0.025593095
19	0x3d2a07b2	0.041511245
20	0x3d069f21	0.0328666
21	0xbb75f33e	-0.0037529017
22	0x3d27c329	0.040957604
23	0x3b5c8788	0.003365012
24	0x3a59197a	0.00082816894
25	0x3cd2c516	0.025728744
26	0x3c158a77	0.009127251
27	0xbc9d7b15	-0.01922373
28	0xab01d8e5	-4.613101e-13
29	0x3cf352cc	0.029702567
30	0xbcd53227	-0.026024891
31	0x3ce5362a	0.027979929
