checkpoints/model_200_20.pth (torch, 322733 bytes, 14 tensors)

module.conv1.weight f4 [32, 3, 3, 3]
00000000: 94da 923c 33a7 863b 5b4b 81bc adc9 8fbc
00000010: 6082 e7bb 3bb1 74ba 1b73 b3bc 10fd e03b
00000020: 5f82 983c 9381 17bd 829f 6bbc 0b9d 56bd
00000030: 4e8b acbc b470 b83c 9e11 8d3b 6a36 dabc
00000040: bf12 dbbc 09c9 1abd c1b9 2abd 4744 39bd
00000050: 95c1 c3bd 5767 bbbc 26b1 33bc 500a 23bd
00000060: 0017 a9bd fb37 a3bc fa8a 40bd c066 8d3b
00000070: 43cb 203b 72a6 abbb d326 873c 1eac f23c
00000080: 1137 aa3b 003a a93c dca0 223c 9bf1 2f3c
00000090: 57dc 5f3c f653 a53c 4aec ec3c b328 6f3c
000000a0: 6e1c 093a f042 873c 5591 a03c 216e 3c3d
000000b0: 46fe a73c 8281 bd3c 8723 8a3c e0b7 243c
000000c0: 4a43 373c 2568 c73b 7cb3 a83b 2eee 4e3c
000000d0: d591 17bb e740 9f3b 89aa 00bd b64e 57bd
000000e0: 0d56 97bd 7bcf 27bd 7f8b f1bc 1991 93bc
000000f0: b9d8 14bd 897e cdbc c990 56bc 5270 febc
00000100: 6639 93bc 6bd6 63bd e1ce e4bc d4bc fa3b
00000110: 671c 8dbc d9ef 55bd 327d 62ba 3456 e0bb
00000120: 25b6 b93b 583e 9c3c 381e a9bc 74e0 0bbc
00000130: ca34 85bc e179 22bc a744 afbc 85f0 53bc
00000140: b05e 203c ab2b 6fba d47a 93ba 5766 96ba
00000150: 9976 75ba 694e 9fba 676a 97ba 4716 63ba
00000160: ec63 88ba 1fc1 8cba d842 fdba d405 03bb
00000170: c773 0abb ac38 01bb 7cbe 05bb ef3c 0ebb
00000180: 53df 02bb 555d 0abb 3591 13bb b475 8cbb
00000190: e9fb 91bb 8c4f 95bb 6fc9 93bb d44c 96bb
000001a0: 3892 99bb afd9 94bb 9623 9abb 79f6 9dbb
000001b0: 6849 b83d c426 853d e709 ca3d 0c84 d33a
000001c0: dda1 f3bc ad49 77bc c9a9 c0ba 9bb6 2f3b
000001d0: 7133 11bc 3bbd 9b3d ac4c d63c f374 3b3d
000001e0: 2829 19bd cac5 14bc 07f5 ffbc 6674 10bc
000001f0: 4249 94bc 23fa fdbc 5aae e93c 7628 de3c
00000200: d250 c93c 6224 403c 0034 06bd da1c ccbc
00000210: 6620 0abc d6bc 73bb ef3d 1fbd 1fe1 0000
00000220: f4e6 0000 c2ef 0000 018b 0080 00b5 0180
00000230: 70d6 0000 3520 0180 26fb 0180 96a8 0000
00000240: a74f 0180 b2d9 0000 5016 0180 de49 0100
00000250: ae31 0000 dfd9 0080 6ef4 0000 a41b 0080
00000260: b32e 0100 c6fb 0080 2405 0180 8aeb 0080
00000270: cc2e 0000 b967 0000 2759 0000 f83c 0180
00000280: 6f05 0080 3812 0180 e908 163b b832 36bc
00000290: 4c65 f7bb 6903 fdbb c860 5dbc 872b ffbb
000002a0: 3635 b2ba 06ce 99bc fb5d 3bbc 77e8 ca3a
000002b0: 1324 12bc 1920 27bc 8cff b1ba 47bd 2bbb
000002c0: ee21 68bc d3f6 94bb 7d89 77bc d192 4cbc
000002d0: 2656 97bc 3c3a 63bc 096a 87bc a8f0 ddba
000002e0: 3116 96bb db94 b4bb fb48 ba3c 9b10 743c
000002f0: f980 b83b f19d 1b3d 62ae 393d bcd3 d03c
00000300: b326 9ebc f495 18bd 0265 1bbd 1f23 02bd
00000310: 9b9c b1bb 710f 3c3c f27b 4d3d 9437 2d3d
00000320: 4803 213d 9d7d c83b 48ef 44bd 8289 69bd
00000330: 0d1a acbc 4dee cebb bd13 7f3b 7897 643d
00000340: 82c9 613d 8923 363d fe4c 21bc 8fbd b9bb
00000350: 0704 35bc d171 8bbd 5c94 78bd 2582 4bbc
00000360: 0e6f 70bd c98c 043b c86e e73d 31fc 14ba
00000370: 4882 43bd fed3 5d3d 70d7 b0bc 7aed 0abc
00000380: c1b4 143e 2d06 6bbd f416 05bd 9c7d d03d
00000390: 0e11 42bc 5512 3cbd 58e4 6b3d b1ae e6bc
000003a0: 6319 25bc de4c ef3d ae30 93bd e25d a9bc
000003b0: 8088 993d eff2 563c a3ab 49bd 959b 2f3c
000003c0: 31c8 27bd 76e2 edbc 377c d33d d935 0080
000003d0: 8605 0000 9c70 0080 7490 0080 acfe 0100
000003e0: 2a2d 0000 4fee 0100 4203 0100 4c0f 0080
000003f0: 3d3c 0080 4587 0000 6b4e 0000 879d 0000
0.017926492 0.004109287 -0.015783003 -0.017552221 -0.0070651025 -0.0009334271 -0.021905473 0.006866105
0.018616853 -0.036988806 -0.014381291 -0.05239586 -0.02106252 0.022514679 0.0043050786 -0.026637275
-0.026742337 -0.03778938 -0.041681055 -0.04523113 -0.09558407 -0.022876425 -0.010967528 -0.039804757
-0.0825634 -0.019924155 -0.04700754 0.0043152273 0.0024535216 -0.0052383477 0.016498005 0.029623087
0.0051945527 0.02065754 0.009926047 0.010738756 0.013663373 0.020181637 0.028921265 0.014597106
0.00052303716 0.01651141 0.01960055 0.046003465 0.02050699 0.023133043 0.016862644 0.010053605
0.011185477 0.006085413 0.0051483493 0.012630029 -0.0023127694 0.004860032 -0.031412635 -0.0525653
-0.0738946 -0.040969353 -0.029485462 -0.018013524 -0.036339495 -0.02508475 -0.013096043 -0.031059418
-0.017971706 -0.055624407 -0.027930679 0.0076519046 -0.017225457 -0.05223069 -0.00086398714 -0.0068462137
0.0056674653 0.019072697 -0.020644292 -0.0085374005 -0.016260523 -0.0099167535 -0.02139504 -0.012935762
0.0097882 -0.00091236335 -0.0011251816 -0.0011474591 -0.0009363681 -0.0012154105 -0.0011552096 -0.00086626824
-0.0010405756 -0.0010738707 -0.0019322289 -0.0019992488 -0.0021126138 -0.0019717617 -0.0020407727 -0.00217038
-0.0019969537 -0.002111276 -0.002251697 -0.0042864922 -0.004455079 -0.004556602 -0.0045100967 -0.0045867953
-0.00468662 -0.0045425515 -0.004703949 -0.0048206416 0.08998376 0.065015346 0.0986517 0.0016137375
-0.029740268 -0.015093249 -0.0014699037 0.0026811722 -0.008862362 0.07604452 0.026159607 0.04576583
-0.037392765 -0.00908036 -0.031244768 -0.008816814 -0.018101338 -0.031003064 0.02852552 0.027118903
0.024574671 0.011727424 -0.032764435 -0.024916101 -0.008430576 -0.0037191412 -0.038877424 8.0758e-41
8.285e-41 8.6009e-41 -4.9865e-41 -1.56766e-40 7.6926e-41 -1.03389e-40 -1.8193e-40 6.0477e-41
-1.2041e-40 7.8094e-41 -9.984e-41 1.18334e-40 1.7822e-41 -7.8157e-41 8.7685e-41 -9.916e-42
1.08588e-40 -9.0319e-41 -9.368e-41 -8.4495e-41 1.6788e-41 3.7209e-41 3.1982e-41 -1.13707e-40
-1.949e-42 -9.8371e-41 0.0022893494 -0.011120491 -0.0075499173 -0.007721354 -0.013511844 -0.0077871713
-0.001359618 -0.018774997 -0.011435981 0.0015480657 -0.008919734 -0.010200524 -0.0013580187 -0.0026205347
-0.014168246 -0.0045460253 -0.015108463 -0.012486176 -0.018473696 -0.013868865 -0.016530054 -0.0016932683
-0.004580282 -0.005510909 0.022739878 0.014896537 0.005630609 0.03799242 0.04533232 0.025491588
-0.019305563 -0.03725238 -0.037938125 -0.031771775 -0.00542028 0.011478291 0.05016703 0.04228933
0.03930977 0.00611849 -0.04807976 -0.057015903 -0.021008516 -0.0063150288 0.0038921677 0.055808514
0.055123813 0.044467483 -0.0098450165 -0.005668349 -0.0110483235 -0.06808818 -0.06068836 -0.012421166
-0.05869966 0.0020225516 0.11300427 -0.00056833314 -0.047731668 0.05415725 -0.021587104 -0.00847947
0.14522077 -0.057378937 -0.032492593 0.10180208 -0.0118448865 -0.04591592 0.057590812 -0.028159471
-0.010076853 0.11684583 -0.07187019 -0.02067465 0.074967384 0.013119443 -0.04923595 0.010718246
-0.0409624 -0.029038649 0.103264265 -1.9317e-41 1.981e-42 -4.0397e-41 -5.182e-41 1.83195e-40
1.6202e-41 1.77325e-40 9.3004e-41 -5.487e-42 -2.161e-41 4.8526e-41 2.8131e-41 5.651e-41

module.conv1.bias f4 [32]
00000000: 9717 b13d c00b 263e 0548 e93d 6f17 fbbb
00000010: 15e5 283b 9856 f08e 42f0 283e 57cd 183c
00000020: 29b4 743c fff6 9290 bfd7 243e 276d 3c3e
00000030: 2a85 ee3d 890b b03d 83df 3d3e 01d8 159c
00000040: 17f1 1d3e 7789 62bb aa05 cd3a 2d15 e59f
00000050: 5826 ea3b aebe 0e9c eb8c 3fb1 e02c 423e
00000060: e381 82bd f9a1 723d a572 4e3e 6f81 ab3d
00000070: f200 c598 963d 8d3d b885 173e 3917 2e3d
0.086470775 0.1621542 0.1139069 -0.0076627056 0.002577131 -5.9247955e-30 0.16497901 0.009326301
0.014935532 -5.7967404e-29 0.16097926 0.18401013 0.11646493 0.0859595 0.18542294 -4.9579143e-22
0.15424 -0.0034566799 0.0015641947 -9.7020305e-20 0.007145684 -4.7230307e-22 -2.787426e-09 0.18962431
-0.0637243 0.0592365 0.20160921 0.08374297 -5.092426e-24 0.06896512 0.14797103 0.042502616

module.conv2.weight f4 [32, 32, 3, 3]
00000000: 946f cbb9 5076 b2b9 78be a6b9 2698 beb9
00000010: c228 a3b9 6c20 a2b9 edf6 ddb9 ec4a bfb9
00000020: 4267 b5b9 9953 61bb 384f 61bb 613d 64bb
00000030: efea 5cbb 4966 5dbb 1e97 60bb 3565 62bb
00000040: 62e5 62bb 7d12 66bb 019e ddb9 9f64 bcb9
00000050: 58f4 abb9 5747 ccb9 8b80 afb9 7b87 b5b9
00000060: ca03 e3b9 dff1 c4b9 a54a bdb9 5408 0180
00000070: b4fe 0080 28fc 0000 5421 0080 dd08 0000
00000080: b519 0080 586b 0100 c70e 0180 337a 0000
00000090: a85a 02bb 4174 02bb 8b88 05bb 8075 f0ba
000000a0: f29d f4ba eb92 fdba de40 e7ba 0220 ecba
000000b0: 3b26 f7ba dbf6 0080 742e 0100 f0d4 0000
000000c0: 2ee5 0080 550f 0100 e84d 0100 39cf 0080
000000d0: 503a 0080 1240 0100 7934 cfba a71d c5ba
000000e0: ed0b bdba 3d88 c8ba 2e5a b8ba dc8f b6ba
000000f0: 6810 d8ba 1b1d c8ba fd0e c4ba 13dc 9cb7
00000100: fc71 92b7 8b86 8bb7 d490 18b7 2ee7 1ab7
00000110: 4d41 18b7 9a43 d0b6 0c9b d9b6 982f d0b6
00000120: c9d3 2dbb 2e0b 38bb ad90 3fbb 2f26 30bb
00000130: 35fd 3abb 3866 41bb ce4d 33bb 55f6 3dbb
00000140: 3fe9 44bb 880d 0000 6e48 0000 0c52 0000
00000150: 3f36 0180 ad39 0080 2394 0100 2f9e 0000
00000160: 4bae 0080 6b0d 0100 2194 d5ba 2ed6 c6ba
00000170: 8b93 c3ba 11e0 cbba 3843 beba c0db baba
00000180: 5c47 daba 00fb ccba b081 c8ba 0783 1cbb
00000190: ea63 15bb 3e41 15bb be84 15bb 147f 10bb
000001a0: 4c45 10bb 9485 1dbb 809d 19bb a4d9 17bb
000001b0: 23ec c2ba f2d5 b5ba ae44 b6ba f2d1 bdba
000001c0: d1d8 b1ba 19dd afba 09c6 c6ba c605 bcba
000001d0: 79a9 b9ba 9579 d4ba 3e30 ceba eb2f d1ba
000001e0: 30b4 cbba 2eb3 c6ba ed96 cbba 975b d4ba
000001f0: aa79 cfba 94ec d9ba 7b6b e5ba f24b d7ba
00000200: 3881 d0ba f954 ddba 977f cdba dc6f c7ba
00000210: 7d2c edba 637d ddba 0615 d7ba f725 0180
00000220: a076 0000 b497 0000 ab8e 0080 7501 0100
00000230: 8f99 0100 ba85 0100 37d4 0080 9e60 0000
00000240: 82e0 1dbb b9ea 18bb 5ebe 17bb 19b3 1cbb
00000250: ff41 14bb a054 13bb f767 20bb de55 1bbb
00000260: 24f7 19bb e035 2abb a78b 2cbb c6cc 33bb
00000270: a837 2dbb e8e7 31bb 360b 36bb bd3e 36bb
00000280: 3c42 3cbb da02 41bb c327 05b4 6eaa c6b3
00000290: f1c0 96b3 62f9 b0b3 ea89 89b3 1817 57b3
000002a0: 4d03 bbb3 bbfb 95b3 8a37 69b3 0909 0180
000002b0: b5d9 0000 ee87 0080 34c8 0000 465f 0100
000002c0: 68e3 0000 543b 0180 14d8 0000 f708 0180
000002d0: 931d 21bb 374c 23bb 0f87 28bb 4ff1 1ebb
000002e0: 09cf 21bb c17e 27bb 7ef0 1ebb 6e91 22bb
000002f0: 97df 28bb af0c 0180 8ed4 0080 2cd1 0080
00000300: adbd 0080 6ac0 0080 5d0c 0080 9738 0000
00000310: b43c 0080 72df 0080 3997 0080 7695 0080
00000320: df8f 0080 7c01 0100 a51e 0180 3b73 0100
00000330: c450 0000 eb4c 0180 b17d 0080 8969 e8ba
00000340: 0a10 e3ba 2e4f d8ba 1ef5 e0ba 19df d3ba
00000350: c0d7 cfba d0d3 efba c1b7 e3ba 7aa5 deba
00000360: fd12 8a2a f9a5 2a2b bde2 c4a8 402e 3f2a
00000370: 48cf 042b 9d74 faa9 5f62 19aa 707e 042b
00000380: 3a75 caa8 4f0c 35b8 d510 22b8 ecc9 14b8
00000390: 8174 31b8 f724 15b8 32f4 13b8 88c3 42b8
000003a0: dc91 38b8 1dae 2bb8 0471 42bb 1b28 40bb
000003b0: fd0c 40bb 4070 3dbb e537 3abb ef8d 3bbb
000003c0: f47a 44bb 942b 41bb 5824 42bb b05f 9fb9
000003d0: 081a 77b9 377d 75b9 c999 8ab9 70b3 63b9
000003e0: 0e72 3fb9 9d4e b2b9 18a4 8cb9 0e56 7ab9
000003f0: 9e46 0080 378e 0080 7ea1 0080 c248 0000
-0.0003880231 -0.00034038955 -0.00031803898 -0.00036352983 -0.0003112015 -0.00030923204 -0.0004233638 -0.0003648618
-0.00034599943 -0.0034382103 -0.0034379493 -0.0034826624 -0.0033709367 -0.003378289 -0.003426976 -0.0034545187
-0.0034621586 -0.0035106235 -0.00042270127 -0.00035933123 -0.00032797712 -0.00038963064 -0.00033474373 -0.0003462395
-0.00043299637 -0.0003756424 -0.00036104504 -9.4823e-41 -9.137e-41 9.0457e-41 -1.1956e-41 3.18e-42
-9.222e-42 1.30343e-40 -9.7137e-41 4.3837e-41 -0.001989046 -0.0019905719 -0.0020375575 -0.0018345565
-0.0018662794 -0.0019346153 -0.0017643233 -0.001801491 -0.0018855998 -8.8555e-41 1.085e-40 7.6388e-41
-8.2214e-41 9.7336e-41 1.19783e-40 -7.4337e-41 -2.0919e-41 1.1482e-40 -0.0015808485 -0.0015038744
-0.001442311 -0.0015299391 -0.0014064962 -0.0013928371 -0.0016484382 -0.0015267463 -0.001495808 -1.869913e-05
-1.7457634e-05 -1.6632743e-05 -9.093626e-06 -9.232941e-06 -9.07511e-06 -6.206753e-06 -6.485154e-06 -6.2044237e-06
-0.002652394 -0.0028082835 -0.002923052 -0.0026878228 -0.002853227 -0.002951039 -0.0027359608 -0.0028985937
-0.0030046252 4.854e-42 2.5983e-41 2.9433e-41 -1.11295e-40 -2.069e-41 1.44977e-40 5.6746e-41
-6.2525e-41 9.6649e-41 -0.0016294756 -0.0015170032 -0.001492129 -0.0015554448 -0.0014515882 -0.0014256164
-0.0016653347 -0.0015638769 -0.0015297439 -0.002388181 -0.002279515 -0.0022774483 -0.0022814716 -0.00220484
-0.002201396 -0.0024035918 -0.0023439825 -0.0023170495 -0.00148714 -0.0013872965 -0.0013905966 -0.0014482124
-0.0013568645 -0.0013417333 -0.001516522 -0.0014344982 -0.0014164887 -0.0016210551 -0.001573093 -0.0015959715
-0.0015541371 -0.0015159601 -0.001553265 -0.0016201612 -0.0015829105 -0.0016626292 -0.0017503345 -0.0016425832
-0.0015907651 -0.0016886286 -0.0015678284 -0.0015215832 -0.0018094924 -0.001689833 -0.0016409464 -1.05455e-40
4.2555e-41 5.4421e-41 -5.118e-41 9.2358e-41 1.46922e-40 1.39808e-40 -7.6128e-41 3.466e-41
-0.0024090116 -0.0023333265 -0.002315424 -0.0023910461 -0.0022622345 -0.002248086 -0.002447603 -0.0023702304
-0.0023493255 -0.0025972053 -0.0026328356 -0.0027435287 -0.0026430879 -0.0027146284 -0.0027777678 -0.002780839
-0.0028726002 -0.0029451163 -1.2401055e-07 -9.2510945e-08 -7.020015e-08 -8.241001e-08 -6.404646e-08 -5.0079592e-08
-8.7084665e-08 -6.984143e-08 -5.4300052e-08 -9.5077e-41 7.8099e-41 -4.8762e-41 7.182e-41 1.26013e-40
8.1578e-41 -1.13118e-40 7.7514e-41 -9.5051e-41 -0.0024584278 -0.0024917254 -0.0025715267 -0.0024252718
-0.0024690053 -0.002555773 -0.0024252231 -0.002480592 -0.0025768036 -9.6386e-41 -7.625e-41 -7.5037e-41
-6.8043e-41 -6.9025e-41 -4.435e-42 2.03e-41 -2.1776e-41 -8.0157e-41 -5.4248e-41 -5.3616e-41
-5.1611e-41 9.2368e-41 -1.02829e-40 1.33172e-40 2.8973e-41 -1.19428e-40 -4.509e-41 -0.0017731647
-0.0017323506 -0.001650309 -0.0017162894 -0.0016164511 -0.0015857145 -0.0018297378 -0.0017373489 -0.0016986572
2.45269e-13 6.0626466e-13 -2.1858703e-14 1.6980254e-13 4.718348e-13 -1.11224594e-13 -1.3623259e-13 4.707129e-13
-2.2477344e-14 -4.3165226e-05 -3.8639486e-05 -3.5474004e-05 -4.230859e-05 -3.5558794e-05 -3.5274956e-05 -4.6435307e-05
-4.400486e-05 -4.0931733e-05 -0.0029669413 -0.002932078 -0.0029304617 -0.0028906018 -0.0028414663 -0.0028618535
-0.0029980512 -0.0029475437 -0.0029623713 -0.00030398136 -0.00023565453 -0.00023411667 -0.0002643599 -0.00021715253
-0.00018257668 -0.00034009377 -0.0002682514 -0.00023873916 -2.5333e-41 -5.1017e-41 -5.7932e-41 2.61e-41

module.conv2.bias f4 [32]
00000000: cf1d 48bb 0737 3dbc 89b1 043c b92c 3d3c
00000010: d7ae 1b3d d444 c23c 2eba 7f3d 2ea6 98bc
00000020: 6fcf 2d3d af7e 1a3d d7f8 b13c af11 bfaf
00000030: 9a02 173d 7e1c 653d dcc1 0abd 0b2a 573c
00000040: 817b 863c 5317 24a9 1551 003c 7132 13a9
00000050: e3d9 e4bc 1793 de9f 9b55 09bb 87d2 2bbc
00000060: 78e5 7bbc 8bb5 b43c 96e6 3e3c 6d55 4f3c
00000070: eaee 9e3c 482c 5b3d b730 2d3d 048f 8cba
-0.0030535345 -0.011548764 0.008098968 0.011546307 0.038008537 0.02371446 0.062433414 -0.018633928
0.042434152 0.03771847 0.021725101 -3.4755263e-10 0.036867715 0.055935375 -0.033876285 0.013132582
0.016416313 -3.6435546e-14 0.007831831 -3.2684308e-14 -0.027935928 -9.4264e-20 -0.0020955566 -0.010487205
-0.015374534 0.022059223 0.011651656 0.012654644 0.019401032 0.053509027 0.042282786 -0.0010723774

module.conv3.weight f4 [32, 32, 3, 3]
00000000: 0022 4bb9 b85f e2b8 de7c 7738 6417 5db9
00000010: b420 0bb9 b5cf e837 68e9 68b8 1a43 b537
00000020: ab4f 3439 6562 1abd f817 4b3c 7c03 863d
00000030: 7261 a5bc 31d1 bc3c 7232 a03c 4c2e 653d
00000040: 8ad4 903c 0f9b 2a3c b861 523d 7d0b 383c
00000050: ef8b 103d e546 1c3d 2e2b 95bb 0837 cbbb
00000060: 3d8e aa3c f2de 37bc 6163 adbc 7eba f6bc
00000070: 8b70 0e3c a54b 593c 4283 46bb 61bf deba
00000080: fc4c 233c f94f 4ebd d26e f1bc 1ad7 0abc
00000090: ff25 c9bc f83e b5bc e0b6 e6bc daae fbbb
000000a0: dcb4 edbb 1ffe b4bc 1718 f2ba ba68 23bb
000000b0: 9bed 92bc c8bc 94bc bb81 9abb 4ab1 803d
000000c0: 5dea 06bb ebaf db3b 1416 953c b992 3abc
000000d0: 282c 37bb 1550 b93c fd2b 0abc d313 783c
000000e0: 05ee 553d 8265 c5bc d5e7 d5bb 0810 943c
000000f0: 929d 45bd a895 aebc df1a 9d3a d133 8b3c
00000100: 13ce 703b 2cca 9ebc 087e fc3c 0f13 0d3c
00000110: e372 803b 7f02 733d 6f70 0f3d 7950 743b
00000120: 45a2 823b d0ed e53c f276 9d3d e280 7cbc
00000130: d660 83b9 1031 b83c 074a d9bc 2b14 973c
00000140: 726f eb3c 6743 89bc 09ff 4cba a6b1 f43b
00000150: 4630 12bc 2e75 03bd 4cc8 793c b732 11ba
00000160: 2223 97bc 4a9b 0c39 103d fcbc 78ed 14bc
00000170: 4592 453d a058 37bc 76c7 e23c 3291 553c
00000180: 5942 3bbc 3d87 b93c cfeb 2d3c a98c 122e
00000190: c61b 082e 8a96 6e2e 2a50 0a2e 7756 4e2e
000001a0: dd5c c1ac 0e59 142e 97b4 d0ac 2c75 582e
000001b0: add2 c93c 4926 13bc 649d 7b3c 321c 1bbb
000001c0: dce3 0f3c 8ec4 5f3c 6cab 273c 5093 343c
000001d0: cc6a 0d3d ee27 aebc 4bd6 07bc 1f49 7e3c
000001e0: 529c a7bb be7f 823b 671e a43c 5237 54bc
000001f0: 2ac6 913b 0249 223c 9159 4d3c bb00 8a3c
00000200: 7b23 453d 080c 0bbc fcbb 2c3c 82d2 003d
00000210: 734f 2bbd 3be1 423b 96e3 f03c d57a 62bd
00000220: 7dcf 1f3c cd8a a53d bba7 11bd 0242 053d
00000230: 7a67 c93c 7816 e3bc e392 3c3c 7825 033d
00000240: af3d cebc f0ab 783c 3c6d 373d f6f6 bdbc
00000250: bb77 2f3b e8eb 833c a728 68bd 8011 99bc
00000260: 923a b63b 47bb 0080 06e5 0000 f312 0080
00000270: aa72 0000 21c2 0080 7534 0080 8d28 0000
00000280: e03b 0000 f5ec 0080 c151 a0bc 1f55 00bd
00000290: 073c e23c 5c80 e23a 5cff bfba 1912 e83c
000002a0: 3859 58bc 394c b23c 8c8f a3bc 962a 0080
000002b0: b639 0100 58e4 0080 adf5 0180 2632 0000
000002c0: 81f5 0080 4f26 0080 9ae7 0000 399a 0000
000002d0: b3da e6bc ed05 07bd bd69 15be 50e5 14bd
000002e0: ce62 9b3c 57df cabc c085 10be bfc4 10bd
000002f0: d7c2 3bbc c600 0180 c6e1 0080 940d 0000
00000300: bee6 0000 1962 0080 c9da 0000 5d5a 0080
00000310: 13e2 0000 337f 0000 47eb e3ba ed9c e1ba
00000320: d410 c5ba eb8b f9ba 2fe4 00bb d786 daba
00000330: 811e 0fbb 2b26 0fbb 5677 f3ba 12e5 943b
00000340: 9316 ac3c 3f9e 913d 8d13 d4bb 88b2 3bba
00000350: 783f a93c c3f6 0abd 67ef 83bc 1b85 2b3c
00000360: 0d32 a0bc d299 ebba d8f8 c23c c5a6 0ebc
00000370: 114d 1b3c 8a37 0d3d 7638 c7bc ae97 d63a
00000380: ae52 f43c 7426 843b 3178 3ebc 54a9 993c
00000390: 2eb3 423c 7436 963b 01ad 6bba 4f3a 05bc
000003a0: 4e31 e23b 26a1 27bc ffc6 98bb 53af 0b3d
000003b0: 6409 033e 6163 c23b 9fcf 27bc 6f55 fe3c
000003c0: d97d 073d 98ab 093b 3b4a 6b3c 29c5 6bbc
000003d0: cc32 803c 3863 103d 248a e5bc c900 53bc
000003e0: d61c 173a 1bee 7bbd caaf b9bc 392e 53bc
000003f0: 0bb6 05bd d4fb 893c 1595 a33d 43ba d2bc
-0.00019372255 -0.00010794349 5.900568e-05 -0.00021084916 -0.00013268256 2.7753276e-05 -5.5530487e-05 2.1608128e-05
0.00017195816 -0.037691493 0.012395851 0.06543633 -0.020188067 0.023048969 0.019555304 0.055952355
0.017679472 0.010412945 0.051362723 0.011233208 0.0352897 0.038153548 -0.0045522666 -0.0062016286
0.020819778 -0.011222588 -0.021165552 -0.030118223 0.0086938245 0.013262664 -0.0030290638 -0.0016994291
0.009967085 -0.050369237 -0.029471789 -0.008474136 -0.02455425 -0.022124752 -0.028163373 -0.007680756
-0.007254226 -0.02209383 -0.0018470314 -0.0024934248 -0.017935565 -0.018156424 -0.004715172 0.06283815
-0.0020586469 0.0067043207 0.018199004 -0.0113875205 -0.0027949903 0.022621194 -0.008433339 0.015141445
0.052228946 -0.024096254 -0.0065278807 0.01807405 -0.048245974 -0.021311596 0.0011986158 0.016992481
0.0036743924 -0.019383512 0.030821815 0.008610501 0.0039199456 0.059328552 0.035019334 0.003727941
0.003986629 0.0280675 0.07688703 -0.015411587 -0.00025058415 0.022484332 -0.026524557 0.018442234
0.028739665 -0.016755773 -0.00078199856 0.0074674664 -0.008922642 -0.032094173 0.015245508 -0.0005538868
-0.01844937 0.0001340929 -0.030790836 -0.00908982 0.048235197 -0.011190563 0.027683001 0.013035106
-0.011429393 0.022647494 0.010615303 3.3321488e-11 3.0947488e-11 5.424864e-11 3.1448767e-11 4.6915773e-11
-5.4957e-12 3.37304e-11 -5.931765e-12 4.9216783e-11 0.02463659 -0.008981296 0.015357349 -0.0023667929
0.008782353 0.013657702 0.010233741 0.01102145 0.034525678 -0.021259274 -0.0082908375 0.015520363
-0.0051150704 0.003982513 0.020034028 -0.0129526425 0.004448672 0.009905102 0.012533561 0.016846051
0.04812954 -0.008486755 0.010542866 0.031450756 -0.041823816 0.0029736299 0.029405396 -0.055292923
0.009754059 0.08083115 -0.03556035 0.032533653 0.024585474 -0.027720675 0.01150963 0.032018155
-0.025175897 0.015177712 0.04478191 -0.02318905 0.0026774246 0.0161037 -0.056679394 -0.018685102
0.0055611813 -6.7182e-41 8.2158e-41 -6.798e-42 4.1134e-41 -6.964e-41 -1.8818e-41 1.4547e-41
2.1479e-41 -8.5004e-41 -0.019570233 -0.031331178 0.027616514 0.0017280686 -0.0014648247 0.028328942
-0.013204865 0.021764861 -0.01996591 -1.5277e-41 1.12538e-40 -8.1914e-41 -1.79967e-40 1.799e-41
-8.807e-41 -1.3743e-41 8.3083e-41 5.5325e-41 -0.028180456 -0.032964636 -0.14591117 -0.036351502
0.018968012 -0.0247647 -0.14113522 -0.03534388 -0.011460028 -9.2113e-41 -8.0992e-41 4.871e-42
8.2775e-41 -3.5191e-41 7.8485e-41 -3.2416e-41 8.11e-41 4.563e-41 -0.0017388844 -0.0017212905
-0.0015034922 -0.0019038891 -0.0019667258 -0.0016672265 -0.002183825 -0.0021842818 -0.0018574994 0.004543909
0.021006858 0.07110261 -0.006472057 -0.0007160087 0.020660147 -0.033926737 -0.016105367 0.010468747
-0.019555116 -0.0017974919 0.023800299 -0.008706753 0.009478823 0.034476794 -0.024318915 0.0016372108
0.029824581 0.0040329043 -0.011625336 0.0187575 0.01188354 0.004584128 -0.0008990318 -0.008131578
0.0069028502 -0.010231292 -0.004662394 0.03410275 0.12796551 0.005932257 -0.010242372 0.031046597
0.033079002 0.002100682 0.01436096 -0.014390268 0.015649222 0.035250872 -0.028019972 -0.012878605
0.000576449 -0.061506372 -0.02266683 -0.012889438 -0.032644313 0.016843714 0.079874195 -0.025723582

module.conv3.bias f4 [32]
00000000: 3572 103d c9a1 3d3c 0cf0 183d 8d3b f03c
00000010: 1a9d 9a3c 4daa f496 30ec d3bc a956 233d
00000020: 75db b43c 0d01 2f3d 8d5d 7bba b00d 133d
00000030: 24a1 5dba 8cbb 423c 4382 92ab 5674 4d3d
00000040: 0adf 76bb dd73 dbbc c47d bf8d 2a41 e6bc
00000050: a16e 113d 9fee 8a97 f5ff 8d3c 8bc4 433d
00000060: 86bc d1b7 3a29 d33b ff7e 4f3d 82b2 3aa0
00000070: 1948 a6bc 9b08 2db9 9e71 c13c 006c 088d
0.035265166 0.011574217 0.0373383 0.029325271 0.01887374 -3.95278e-25 -0.025869459 0.039877567
0.022077302 0.04272561 -0.000958883 0.035901725 -0.0008454493 0.011885535 -1.0410079e-12 0.050159775
-0.0037669563 -0.026788646 -1.1801561e-30 -0.028107245 0.035505895 -8.978277e-25 0.017333964 0.04779486
-2.500253e-05 0.0064441236 0.050658222 -1.5813876e-19 -0.02029805 -0.00016501771 0.023613747 -4.2038236e-31

module.conv4.weight f4 [32, 32, 3, 3]
00000000: b94b 003c c05b bd3c 60b4 423d 8b76 a2b9
00000010: c635 493c cdbf a23c c8a5 1c37 45a7 883b
00000020: 2d1c 6b3c 8429 c43b d353 803c 28b9 4b3d
00000030: f356 8a3c 15e7 15bc 8cdb 793c 96f8 843c
00000040: eccd 333c 91b2 123d 543d 133c 43e8 983c
00000050: 32f2 ca3c 7081 0c3c c821 233b a27a 66bc
00000060: 7ac5 2f3c 2788 e0ba b644 ca3c cb77 1cbc
00000070: 2f1b 64bb 810c 123c 9dd3 07bb 552a 3fbb
00000080: 7ff6 513b ae08 23bb 7aad 403b a9b0 8d3b
00000090: 9366 303c f43e 873b dfe8 ad3c b081 493c
000000a0: 175d 42bb 8359 bb3b 8155 30bb 6ded 0dbb
000000b0: d620 0e3c 408a 0080 ccd0 0000 bafe 0000
000000c0: 0a96 0180 9bd1 0080 ceb0 0080 61cc 0080
000000d0: 72bb 0180 84aa 0080 b2f3 7b3c dd7f 1f3c
000000e0: 5914 463d 25a6 e73b c5f4 7c3c 8a0e 803c
000000f0: 4df6 de3b 2c44 883b 5adf 783c 6a39 aa3c
00000100: 8abb d73b edf0 a73c ad7f 663c bc85 203c
00000110: a138 f93b df52 a73c b42f c83b db98 083d
00000120: 9d30 59bb 6c6a 013c f919 783b ff01 52bc
00000130: 45f4 f93a 0866 d13b 3b1b 4fbc 756c a03c
00000140: 7ec6 963d 645b 043c 9485 5c3c 032f e53b
00000150: e50e 9c3a 78cd f83b 0065 453c b618 3e3b
00000160: 11b4 013c b572 2d3c d7fd 8a3c 7ad6 803c
00000170: 3f38 ca3c cbc2 403c 4ffb 623c c2d2 213b
00000180: a6af 973c aea1 5a3c e965 283d d55c 983b
00000190: 3556 873a 21be 313d 4d35 5dbb 8101 cebb
000001a0: 774c a03a 42a0 7b3a 5230 26bc b925 a4bc
000001b0: 0a73 2ebb 65d1 92bb c5b6 9dba a0b9 d6bb
000001c0: d6f4 e2bb aa74 a3ba 1c1b b53b d6f3 223c
000001d0: d6e7 d23c 4623 ff3c c60a c23c 7fa5 0c3d
000001e0: 4310 6e3c 2096 2a3c a58e 863c 7089 913b
000001f0: 6bb9 183c 129e 13bc 250a 0180 5275 0000
00000200: 6db5 0080 074f 0000 03e0 0000 7b58 0000
00000210: 19ec 0000 f870 0080 83e4 0000 6e3d ea3b
00000220: fb3e 83b9 4f55 aa3b 3c8c 98bb 9274 b3ba
00000230: 4d49 94b9 2507 d53b 1d7a 473b a4cf ad3c
00000240: bcca 203d 3994 803c bc6c 4b3c f41a dc3c
00000250: ebba a53c 8c23 13bb f7a2 d83c df79 dfbb
00000260: e47a 09bd 1d27 583a b97f 43bc 04be 853c
00000270: 96ee 5eba e52a cebb b059 ec3b 1e67 433b
00000280: 4ec5 43bb e973 813c beec 0080 bde6 0080
00000290: d6b3 0080 62f5 0000 3820 0100 6f27 0100
000002a0: 3e7e 0000 3a39 0180 c84b 0080 ff3c a13c
000002b0: eb28 8b3c a017 2a3d c7a9 683a 7825 293c
000002c0: a3b4 003d b7d6 ed3b 19b2 e93b c26d 173d
000002d0: e7f1 4fbc 36a8 02bc 4b89 0abb 3336 74bc
000002e0: f3ea 08bc 2fa4 a03a 7884 e6bb 3542 2c3b
000002f0: 0379 543c 697a 0100 98e1 0080 27c6 0000
00000300: 4a8c 0080 2a09 0180 e156 0080 2763 0080
00000310: d79a 0000 ae88 0000 fadf 9bbc e6e9 28bc
00000320: 6590 bb3a 1949 9abc 8a68 59bc d262 79bb
00000330: 5a98 5dbc 60fc 133b afc0 2a3d b040 dc3c
00000340: 19a6 b73a e59d a23b d88b ed3b 4164 0ebc
00000350: 15ae b13b 98a8 ff3b 0c75 01bb c477 893c
00000360: f03c 7b9d bbc0 ae9a 4c73 191d 4863 289e
00000370: 8f59 9f9d 7063 049e 1408 1b9d afdf f59d
00000380: 1306 bb9b 8512 8f3c c6b2 ef3b 1d90 c83c
00000390: 22df ab3c 760c f83a e274 9b3c db55 103c
000003a0: d129 1cbb 5993 fb3c f7f1 b53b f53a 713b
000003b0: 9b74 e43c 0d9c 5fbb b10b 13bc 15ea 243c
000003c0: b576 ac3b f46c de3b 7fab fa3c edf4 0000
000003d0: 3651 0080 2dea 0000 0f9d 0080 0fc7 0000
000003e0: 6da9 0080 1808 0080 b093 0000 9725 0180
000003f0: 81e6 883c b6d0 4b3c 6d4b 063d 2f39 183a
0.007830554 0.023115039 0.0475353 -0.0003098737 0.012280887 0.019866848 9.3369235e-06 0.0041703307
0.014349979 0.0059863944 0.01566497 0.049737126 0.016887164 -0.0091493325 0.015250098 0.016231816
0.010974389 0.035814825 0.00898679 0.018665439 0.02477369 0.008575782 0.0024891961 -0.014067324
0.010728234 -0.001713042 0.024690967 -0.009550045 -0.0034806242 0.008914114 -0.0020725497 -0.002916952
0.0032037792 -0.0024877 0.0029400275 0.004324038 0.010766643 0.0041273776 0.021229206 0.012298986
-0.0029657537 0.0057174577 -0.0026906433 -0.002165641 0.008674821 -4.9595e-41 7.4902e-41 9.1379e-41
-1.4566e-40 -7.5192e-41 -6.3426e-41 -7.3317e-41 -1.59078e-40 -6.117e-41 0.015377926 0.009735075
0.04835925 0.0070693665 0.015439217 0.015631933 0.0068042637 0.0041585173 0.01518997 0.02077933
0.0065836357 0.020500625 0.014068526 0.00979751 0.0076056276 0.020425258 0.0061092023 0.0333489
-0.0033140548 0.007898908 0.0037857278 -0.012817859 0.001906999 0.006390337 -0.01264077 0.019582966
0.07362078 0.00807843 0.013459582 0.0069941296 0.0011906294 0.007592853 0.012048006 0.0029006428
0.007916466 0.01058643 0.016966743 0.01572727 0.024685023 0.011765192 0.013853862 0.0024692272
0.018516373 0.0133442115 0.041112814 0.0046497383 0.0010325374 0.04339421 -0.0033753694 -0.0062868004
0.001222982 0.00095987704 -0.010143356 -0.020037519 -0.0026618862 -0.004480528 -0.0012032619 -0.00655289
-0.0069261594 -0.0012470682 0.0055269133 0.00994583 0.025745314 0.03114475 0.023686778 0.034337517
0.014530244 0.010411769 0.01642544 0.0044414327 0.009321551 -0.009009855 -9.5475e-41 4.2087e-41
-6.5083e-41 2.835e-41 8.036e-41 3.1741e-41 8.4696e-41 -4.0526e-41 8.1975e-41 0.0071484363
-0.0002503319 0.005198158 -0.004655389 -0.0013691357 -0.00028283373 0.006501096 0.0030437775 0.021217175
0.039255843 0.015695678 0.012416061 0.026868321 0.020230731 -0.0022451608 0.026444895 -0.006819948
-0.033564463 0.00082455744 -0.011932307 0.016325958 -0.000850418 -0.0062917345 0.00721284 0.0029816101
-0.0029872241 0.01580234 -8.4927e-41 -8.2773e-41 -6.4513e-41 8.8027e-41 1.03393e-40 1.05982e-40
4.5287e-41 -1.12365e-40 -2.7185e-41 0.019682406 0.016987285 0.041526437 0.00088753965 0.010323875
0.03142227 0.007258262 0.0071318266 0.036969908 -0.012691951 -0.007974675 -0.0021138962 -0.0149055
-0.0083567975 0.0012255962 -0.0070348345 0.002628458 0.012968305 1.35748e-40 -8.0928e-41 7.1084e-41
-5.0326e-41 -9.5123e-41 -3.1166e-41 -3.5569e-41 5.5546e-41 4.9031e-41 -0.019027699 -0.010309672
0.0014310001 -0.018833684 -0.013269553 -0.0038053286 -0.013525093 0.0022580847 0.041687664 0.026886314
0.0014011293 0.00496267 0.0072493367 -0.008690895 0.0054223635 0.0078020804 -0.0019753603 0.016780742
-3.3251077e-21 -7.2276086e-23 2.0308988e-21 -8.914377e-21 -4.217955e-21 -7.008585e-21 -2.0518255e-21 -6.5082243e-21
-3.094048e-22 0.017464885 0.0073150126 0.024482781 0.020980421 0.0018924612 0.018976633 0.008809532
-0.0023828635 0.03070991 0.005552526 0.0036808823 0.027887633 -0.0034120113 -0.008974955 0.010065575
0.0052631744 0.0067878906 0.030599354 8.7863e-41 -2.9133e-41 8.4006e-41 -5.6342e-41 7.1409e-41
-6.0779e-41 -2.903e-42 5.298e-41 -1.0532e-40 0.016711475 0.012439897 0.032786775 0.0005806861

module.conv4.bias f4 [32]
00000000: f0f6 fcba 8c8b 563d b061 3b3c fc11 3c3c
00000010: 53ee f1ba 99c4 b3b0 a359 1fbb 11c9 a83c
00000020: f2cf 233c ab42 1bbc 5000 0a3c cf76 14bb
00000030: 4bda 183c 83ff 72b9 c32e 02bd d686 6b3c
00000040: c220 25bd 1d2d eebc eb17 e13a 5a6c 92bc
00000050: 3b23 8b3c fa77 21bb e1d9 a23c 90f6 15bb
00000060: 72a0 0c3c 697f 19bc 842f 023c 217a 513d
00000070: 3a31 b0b6 337a 193d c775 d7bc 3e5c f43c
-0.0019299667 0.052379176 0.011436865 0.011478897 -0.0018457867 -1.307984e-09 -0.0024314902 0.020603688
0.0099983085 -0.009476344 0.008422926 -0.0022653823 0.009329389 -0.00023174104 -0.031782877 0.014375409
-0.040314443 -0.029074246 0.0017173266 -0.017873932 0.016984573 -0.0024638162 0.019879283 -0.0022882558
0.008583175 -0.009368756 0.007945899 0.05114186 -5.2509395e-06 0.037470054 -0.026301278 0.02982914

module.conv5.weight f4 [32, 64, 3, 3]
00000000: d72f 813b f241 efb8 3156 233b 3966 643c
00000010: 428a 16bb 97a6 9c3a 5ac8 dbbb 559b 823c
00000020: 1002 50bc adbc 5f3c 0715 1b3b 6324 c2ba
00000030: 752d 403b 2345 97ba 06ef 52bc f8a3 733b
00000040: 8134 69bc 0427 3139 46ca 043d 8471 df3a
00000050: 017e 5fb8 c745 f83a 8036 6dbc f413 3e3c
00000060: 58c6 9e3c cfcb 1bbd df20 39bb 6f66 a2ba
00000070: b576 953b 37bb 943c 18e3 a5bc dc41 f839
00000080: 0ca6 793b 75be 80bc b0c1 f6bb cb3b aaba
00000090: 8347 533d 602e c63b a11c acbb 93e0 ab3b
000000a0: 1f45 e93b bd96 dc39 e436 953b 2ef7 b3bc
000000b0: dc95 82bb cde2 0080 6b56 0080 4f0f 0180
000000c0: 59e0 0000 8c62 0000 f5c4 0000 ea38 0080
000000d0: b0c2 0080 e95a 0000 0e5c 973c 64f0 a4ba
000000e0: 0e61 afbb d67b 973b 4108 273b b645 30bc
000000f0: 37a3 4f3c 9162 a8bc 5873 1b3c f8d4 9a3c
00000100: b173 333b 64a5 0dbb 050c 93bc c5a2 a33c
00000110: 2d52 ccbb 27db 8f3c 40e2 1a3a 5145 cb3b
00000120: deae 65bc 9faa dfbc ff86 74bb a5f7 4dbc
00000130: aec7 a4bc b0c6 e53b aeab cabc 98a5 31bc
00000140: dba4 443c c420 14bc 030e f3bc 0ac7 b7bc
00000150: a663 0fbc ce74 3cbc 1605 2ebd fa7c 04bc
00000160: 1638 a13a e4a9 22bc 8820 113c fc7c c83b
00000170: 6d2f 21bb 2df4 513c b705 6d3b e2bd 1ebb
00000180: cd63 413c f957 17b8 1731 9b3b 2545 6fbb
00000190: af2e 1bbc 180f 3439 4729 cabc 037a 0a3c
000001a0: fbef 31ba 1d25 9cba 1801 223b a58c 12ba
000001b0: c8a5 3f3c 94d3 da3b c421 1d3c be3a 30ba
000001c0: 42ae 913b fc2e e13b fa10 c939 5383 e9bb
000001d0: 4917 2b3b 3854 0abc b2d6 bb3b 7d30 f5bb
000001e0: 974f e8bb d444 86bc c979 33bc 8f24 5e3b
000001f0: 3186 833b c18e 33bc 9a5e 0080 9726 0000
00000200: ea53 0080 e40f 0000 07a9 0080 348b 0000
00000210: 1954 0000 6dc0 0000 716e 0000 b4c7 3dbb
00000220: f54a 4339 e905 1bbc 8c57 8f3b 7612 b03b
00000230: 7623 03bc 3345 e7ba b3b7 76bb dbcd 50ba
00000240: cbfd 1abc 0aca 223b 2645 28bc debd 0d3b
00000250: 709b d83c 2c47 afbb 2c46 ec3b eb76 e73b
00000260: 7368 a0ba 648d 503c 9db6 863c 20ad 1b3c
00000270: bc8c 8abb d18e 683c 6735 623c 1f14 cc3c
00000280: 9007 9cbc b3b3 90bb dd47 0000 03d3 0000
00000290: 21ea 0000 8325 0000 80ce 0000 b357 0000
000002a0: 6344 0080 03c6 0080 938e 0000 4fb9 31bc
000002b0: 80b8 65ba e19e e23a ac26 13b9 1977 81bb
000002c0: 5243 3abc ea60 803c ab14 17ba 59b5 d1bb
000002d0: 90f9 103c 20d7 823b 7ec2 83b9 3c6d 153c
000002e0: abbc 543b d141 afbb fe5b dc3c 7ae5 b03c
000002f0: 50b4 593c eec4 0000 7546 0000 8760 0080
00000300: a601 0080 9c5b 0000 2b8f 0000 b8a4 0000
00000310: 7571 0080 ff94 0080 0810 233c 0c11 0f3c
00000320: a577 3e3c 7194 4f3c a667 0f3b fe72 d13c
00000330: e983 dd3b 9fde a1bc 71b3 023c c5ec 993c
00000340: 2feb 013a bfc9 0fbb 9af9 fe3a f239 483c
00000350: fb2e d83b d16e ec3b 6ee4 003d ea90 023c
00000360: a197 5b1e 5f9b ac1e eed0 b69e 4e83 a31e
00000370: 305b 831e b3a2 1e9e 79df 741e d41a 069d
00000380: 100e da9d 7333 583c 6fb4 793b 936f 53bc
00000390: a885 9e3b 0880 e13a ca9a 333c 9422 a33b
000003a0: 6c4a 26bc 7fc0 aa3a 1d2e a3bb 6c61 48bc
000003b0: 34c2 80bc 127c 273c 1c2a 5d3b 487f ae3c
000003c0: 6637 c43a b837 713a 4b80 24bc 6947 0000
000003d0: 2f09 0080 e10f 0080 1c8d 0000 bca6 0000
000003e0: 56a1 0080 ed63 0080 0407 0080 f53f 0000
000003f0: b282 553b e89e 8b3b de06 10bb 120a 2b3b
0.0039424705 -0.00011408691 0.00249232 0.013940387 -0.0022970592 0.0011951503 -0.0067072334 0.015943209
-0.012695804 0.013655824 0.0023663656 -0.001481187 0.002932397 -0.001154099 -0.01287437 0.003717659
-0.014233709 0.0001689457 0.032419465 0.001704738 -5.3284693e-05 0.0018941694 -0.014478326 0.011601437
0.019381687 -0.038036164 -0.0028248352 -0.0012390147 0.00456127 0.018155677 -0.020249888 0.00047351315
0.0038093356 -0.015715817 -0.0075304136 -0.001298779 0.05158187 0.006048009 -0.0052524363 0.005245277
0.0071188356 0.0004207398 0.0045536626 -0.02196845 -0.00398515 -8.1361e-41 -3.1001e-41 -9.7327e-41
8.0481e-41 3.5352e-41 7.0655e-41 -2.0417e-41 -6.9841e-41 3.2612e-41 0.018476512 -0.0012583849
-0.005352146 0.0046229167 0.0025487097 -0.010758808 0.012673191 -0.020554813 0.009487949 0.01890038
0.002738219 -0.0021613473 -0.017950067 0.019975075 -0.006235382 0.017560555 0.00059083477 0.0062033315
-0.014018742 -0.027303038 -0.003731191 -0.01257125 -0.020114746 0.007012211 -0.024740066 -0.010842703
0.012002195 -0.009041015 -0.029669767 -0.022433776 -0.008751785 -0.011502458 -0.04248532 -0.008086437
0.001230004 -0.0099282 0.008857854 0.006118415 -0.0024594918 0.012814564 0.0036166736 -0.0024222066
0.0118035795 -3.6083136e-05 0.0047360766 -0.003650972 -0.009471579 0.0001717176 -0.024677886 0.008451941
-0.0006787774 -0.0011912916 0.002471989 -0.00055904157 0.01169724 0.006678054 0.00959057 -0.00067226205
0.004445822 0.006872056 0.00038350356 -0.007126251 0.0026106408 -0.008442931 0.005732381 -0.007482587
-0.007089566 -0.016390242 -0.010954329 0.0033896302 0.0040137996 -0.010959328 -3.3937e-41 1.3843e-41
-3.0103e-41 5.7e-42 -6.0636e-41 4.9937e-41 3.0169e-41 6.903e-41 3.9619e-41 -0.0028958144
0.00018624573 -0.009461858 0.00437445 0.0053732945 -0.00800406 -0.0017644524 -0.0037646114 -0.0007965245
-0.009459923 0.0024839663 -0.0102703925 0.0021628062 0.026441306 -0.0053490605 0.0072105136 0.0070637367
-0.001223816 0.012729023 0.016444499 0.009501725 -0.0042282026 0.014194206 0.013806677 0.024911938
-0.019046575 -0.004415953 2.578e-41 7.5697e-41 8.399e-41 1.3457e-41 7.4078e-41 3.146e-41
-2.4533e-41 -7.1033e-41 5.1146e-41 -0.010847404 -0.00087631494 0.0017289781 -0.00014033419 -0.003950965
-0.0113685895 0.015671212 -0.00057632726 -0.006399792 0.008848563 0.00399293 -0.00025131175 0.009120282
0.0032461088 -0.005348422 0.026899334 0.021593798 0.013287619 7.0645e-41 2.5275e-41 -3.4627e-41
-5.91e-43 3.2863e-41 5.1359e-41 5.909e-41 -4.0701e-41 -5.345e-41 0.009952553 0.008732092
0.011625205 0.0126696685 0.0021881848 0.025567528 0.0067601097 -0.019759474 0.0079773525 0.018789658
0.00049560046 -0.0021940318 0.0019453049 0.0122208465 0.0065973974 0.007215359 0.031467848 0.0079691205
1.16251196e-20 1.8275468e-20 -1.9356411e-20 1.7312603e-20 1.3907879e-20 -8.398096e-21 1.29634655e-20 -1.7748622e-21
-5.771866e-21 0.01319586 0.0038101932 -0.012905019 0.0048377104 0.0017204294 0.010962198 0.0049784873
-0.0101495795 0.0013027339 -0.0049798624 -0.012230258 -0.015717603 0.010222452 0.0033747023 0.021300927
0.0014970123 0.0009201723 -0.010040353 2.5617e-41 -3.294e-42 -5.696e-42 5.062e-41 5.9813e-41
-5.7876e-41 -3.5847e-41 -2.517e-42 2.2943e-41 0.0032579121 0.0042608865 -0.002197675 0.0026098532

module.conv5.bias f4 [32]
00000000: 4b8f e6bb 3945 eb3c 8b34 913c 2c3e fdb2
00000010: 39c3 153d d92a 15bc 1ca8 30b8 6b9e ae3c
00000020: a266 5cbc ac9e 3f3b 4a62 d19b fca6 ea3c
00000030: cf7a a33c b478 4b3d 44d5 7c3c 147e 723b
00000040: 8771 6dba a054 623c 92b2 9b3c 8878 f93c
00000050: 5171 973c a653 273d a707 c3bc 9732 8e3c
00000060: 50d2 473b ba3f 2c3a b0a8 3cb8 db00 ad3c
00000070: 9bff 2da9 de8f 8e3c 3b52 023c 53ab 92bc
-0.007036125 0.028719531 0.01772525 -2.9481349e-08 0.036563132 -0.009104454 -4.2118234e-05 0.021315774
-0.013452204 0.0029238863 -3.4639667e-22 0.028644077 0.01995602 0.04967566 0.015431706 0.0037001418
-0.00090577494 0.0138141215 0.019006047 0.030452982 0.01848665 0.040851258 -0.02380736 0.017358107
0.0030490346 0.00065707753 -4.4979795e-05 0.021118572 -3.863542e-14 0.017402586 0.007954176 -0.01790396

module.conv6.weight f4 [32, 64, 3, 3]
00000000: 3296 f7ba 7bc7 18bb 9bab 34bb 8d53 feba
00000010: 78bc 1abb bb6c 36bb 39ff 07bb eeca 22bb
00000020: 180c 3cbb a767 d638 8cdc 8fbc 98ab 2e3b
00000030: aaa9 31bb 6bb4 bd3b 7f26 eb39 8912 353c
00000040: cf84 f53c 50c9 873c 8f04 43bc 2971 93bc
00000050: 7282 5cbb 14a7 f2bb 6665 debb a896 dcba
00000060: 7968 49bc 265c a2bc e0ea d7bb 7400 bfbb
00000070: b06b 993c 5b02 243c 4b8a d83c 7179 b83c
00000080: 5201 88bc f5ca 0c3d 1991 eb3c fa93 6b3c
00000090: 7225 893c 1733 98bb a7c9 7abc 3fca 9a3c
000000a0: 56df fd3b be6e f13b 375b 3f3a f1cf 4bbb
000000b0: 1504 8b3c a620 393c 11b6 343c ab79 37bb
000000c0: f91e 1f3c 1f0a e9ba b603 b23a cec3 f73b
000000d0: f575 3abc 2d12 2c3c f9b1 8f3b 2f2a a43a
000000e0: bedc cbbb 2755 0b3c f452 153c 6bf8 cf3a
000000f0: 0740 803b d289 c73a 58f0 323b d9e6 d6bb
00000100: 0f3d 0f3d d69f a03c 7a2e 0bbd 519e a63b
00000110: e52c 18bd f976 1abd 02c4 ad3a 44c3 04bd
00000120: 38f3 0ebc 319b 2a3b ba50 ce3b 502f 743c
00000130: 6075 013c 26de 1d3b e913 ef3c 1d57 043c
00000140: e2f1 20bc 6d2d 99bb 02f4 86ba 220b 0abd
00000150: 47ef 41b8 1292 6a3b 24d1 80bc 4df3 6cbb
00000160: 4117 463b 9f9a c63b fb55 b43c b973 a03c
00000170: 329f 04bc 4d7b 0d3d c34b 5d3c 99b7 4dbd
00000180: afa5 1ebb dd36 5cbc 266c 01bd f9fd b5ad
00000190: 4e27 4fad 694c f5ab 2b73 40ae 4a3b 932d
000001a0: 16a4 a32d 980d a32d e49c f32d 1f58 822c
000001b0: e717 bbbc 0709 113d d6bf 86bc 17f1 3a3c
000001c0: eea4 3f3c 60a7 dc3b 858f 1dbb d113 a4bc
000001d0: 27d9 16bc ab36 a93c 812c c1bb 920a 68bc
000001e0: 651d 223a 50d5 393c b230 7cbc c691 96bc
000001f0: 8c4f afbc caa0 b13c 789f e03c d488 bcbb
00000200: c693 d3bc ce4e 833c 0966 943c bba5 e5bb
00000210: 79f8 fa3b 7dd4 68bc 93de c13c ab81 7a3c
00000220: cb16 263b 18e1 d6bb da83 223c 570b 043c
00000230: d3eb 27ba d7f1 8d3c 134e 6a3a f492 a4ba
00000240: cc0c 9f3b f073 67ba af39 c539 cad9 5e3b
00000250: a224 8d3c 4a4c 59bb 455f c13b abd6 5f3c
00000260: b95f 3dbb 1dd5 0000 ffbe 0080 4e23 0080
00000270: 13cf 0000 413a 0000 1c6a 0080 70a4 0080
00000280: 5b80 0000 ed88 0080 db43 8c3c d258 44bc
00000290: 55ee 0ebc 7fa5 9cbb 651f 17bc 4eb6 babc
000002a0: 3ad7 993c a6e1 53bc 2ce4 aabc 1aae 0000
000002b0: c34d 0080 b8fc 0080 9c29 0000 649f 0080
000002c0: 772e 0100 34b1 0080 5b6d 0000 2c48 0180
000002d0: c040 d2bb 8d9a 813c 6b3d 7ebb c6ef 603b
000002e0: c095 bd3c 687a 673a 0211 7e3c c554 113c
000002f0: 8af7 4eba 2694 0000 10fe 0000 5da2 0000
00000300: 87fd 0000 f2a1 0000 9d8f 0080 2eb9 0000
00000310: 815e 0000 94e5 0000 b0e5 113a a44f 2bb8
00000320: 530d 6bba 393d 553a e73d 2d39 8f7b 3cba
00000330: 120f 6e3a 6d5d 2639 905b 19ba ee06 233b
00000340: 6bc2 0b3c 3228 d03b 92c8 943c f1e4 40bc
00000350: c1b5 abbb 7251 023b d2e7 b53b 9df6 25bb
00000360: af68 803b 5867 ea3b 9b0f df39 670b 98b9
00000370: 0973 9aba dbfa 45bb f2bb 923b 93d2 14bb
00000380: ad73 69bc 6aed 45bb 00f2 233d 4949 01bc
00000390: 223a afba 2865 513c 00c4 d73b 10a8 9b3c
000003a0: 77a2 483d 8d60 b4bb f345 943b 9f4c 593c
000003b0: edf2 9e39 a087 d13b a961 7c39 bb3f 02bc
000003c0: 830e 08bc 238b 33bb 25bf 4bbc fd0c 08b6
000003d0: e0d2 2c3c d7c5 873b be73 0cbc f5cf 2f3c
000003e0: ac03 053c 2fcd c23c 76e3 453c 18ff fabb
000003f0: 8dd9 433c 9cb9 143a 1bc3 fb3b 50e8 dd3c
-0.0018889366 -0.002331226 -0.0027568105 -0.0019403562 -0.0023610871 -0.0027835805 -0.002075149 -0.0024840194
-0.0028693732 0.00010223622 -0.01756122 0.002665257 -0.0027109184 0.0057893298 0.00044851375 0.011051782
0.029970555 0.016575485 -0.011902942 -0.017998295 -0.0033647087 -0.007405171 -0.00678699 -0.0016829567
-0.012292975 -0.01981933 -0.0065892786 -0.0058289114 0.018728107 0.010010327 0.02643313 0.022518845
-0.016602192 0.034373242 0.028755711 0.014378542 0.016741488 -0.0046447623 -0.015306867 0.018895267
0.007747571 0.007367938 0.0007299664 -0.0031099285 0.01696972 0.011299288 0.011029736 -0.0027996104
0.009711974 -0.0017779506 0.0013581428 0.0075611835 -0.011380662 0.01050238 0.0043852297 0.0012524779
-0.006221383 0.008504189 0.009114016 0.0015866881 0.0039138827 0.0015223569 0.00273039 -0.006558281
0.03497034 0.019607466 -0.03397987 0.0050847908 -0.03715219 -0.037711117 0.0013257267 -0.032412782
-0.00872498 0.0026032443 0.0062962444 0.014903858 0.00790152 0.002408871 0.029184299 0.00807741
-0.009823294 -0.0046746046 -0.0010296109 -0.033702023 -4.623763e-05 0.003579263 -0.015724726 -0.003615576
0.0030226263 0.0060609127 0.022013655 0.01958643 -0.008094596 0.034541417 0.0135068325 -0.05022392
-0.0024207642 -0.013440815 -0.03159728 -2.0690104e-11 -1.1775315e-11 -1.7429505e-12 -4.3758035e-11 1.6738295e-11
1.8603823e-11 1.8536991e-11 2.7695575e-11 3.7046056e-12 -0.022838546 0.035409 -0.016448896 0.011410019
0.011697037 0.00673382 -0.0024041843 -0.02002898 -0.009207047 0.02065595 -0.005895198 -0.014162676
0.00061841897 0.011342362 -0.015392469 -0.018380057 -0.021400236 0.021683116 0.02741979 -0.005753616
-0.0258273 0.016028788 0.01811506 -0.007008282 0.007659015 -0.014210817 0.023665702 0.015289704
0.0025343176 -0.006557595 0.009919131 0.008059344 -0.0006405685 0.017327232 0.00089380256 -0.0012556002
0.0048538204 -0.0008829227 0.00037617746 0.0034004324 0.017229382 -0.0033157044 0.0059012496 0.013662021
-0.0028896166 7.645e-41 -6.8516e-41 -1.2665e-41 7.4284e-41 2.0898e-41 -3.8065e-41 -5.8989e-41
4.6045e-41 -4.912e-41 0.0171222 -0.011984067 -0.008723815 -0.004780471 -0.009223794 -0.022792008
0.018779386 -0.012932217 -0.020860754 6.2456e-41 -2.7896e-41 -9.0658e-41 1.4927e-41 -5.7179e-41
1.08504e-40 -6.3569e-41 3.923e-41 -1.17726e-40 -0.00641641 0.015820766 -0.0038793932 0.0034322604
0.023142695 0.00088301906 0.015506985 0.008870308 -0.00078951626 5.3146e-41 9.114e-41 5.8245e-41
9.0948e-41 5.8095e-41 -5.1519e-41 6.643e-41 3.3902e-41 8.2357e-41 0.0005565537 -4.0843748e-05
-0.0008966524 0.0008134428 0.00016521626 -0.00071900425 0.0009081225 0.00015865797 -0.00058501307 0.0024875957
0.00853024 0.006352448 0.018162046 -0.011773334 -0.0052401726 0.001988497 0.005551317 -0.0025323995
0.0039187293 0.007153433 0.00042545501 -0.00029000195 -0.0011783551 -0.0030209336 0.0044779712 -0.002270852
-0.014248771 -0.0030201324 0.04002571 -0.007891008 -0.0013368765 0.012780465 0.0065846443 0.019001037
0.048983064 -0.005504674 0.00452494 0.013262897 0.00030317102 0.0063943416 0.00024068974 -0.007949765
-0.008304241 -0.0027396164 -0.012435709 -2.027314e-06 0.010548323 0.0041434574 -0.008572517 0.010730733
0.008118551 0.02377948 0.012078157 -0.007659804 0.011953724 0.000567341 0.0076831705 0.027088314

module.conv6.bias f4 [32]
00000000: 12a3 a33c 2c63 113d 14ba e9ba 1b66 0100
00000010: 4ec2 cd3c ca94 52bc ca38 183c 543e ffbb
00000020: 306a 8239 0a7f 023c 3533 f43b 7d1a 733b
00000030: fe41 d83c a504 7390 236a 0e3d 4ddf 9792
00000040: 632b 62bb d466 8abb 38e8 d03c e725 283d
00000050: 1236 023d 07a8 78bb db78 253d ae8f 563b
00000060: 2cc2 083a 1868 d03c 4766 143c 60f2 a0bc
00000070: 99d3 919e 6922 f53c 4f54 d2bc dee0 ea3c
0.019975219 0.03549497 -0.0017831945 1.28464e-40 0.025117066 -0.012852857 0.009290883 -0.0077894125
0.00024874648 0.007964859 0.0074523934 0.0037094646 0.026398655 -4.7926878e-29 0.03476919 -9.584488e-28
-0.0034510724 -0.004223684 0.025501356 0.04105177 0.031789847 -0.003794195 0.04039846 0.0032739448
0.0005216922 0.02544026 0.009057588 -0.019646823 -1.5439987e-20 0.029923635 -0.025674967 0.028671678

module.conv7.weight f4 [24, 64, 3, 3]
00000000: 5176 fa3b 59af 063c 5b4f 8a3b 2ece 123c
00000010: cbf3 143c 4fb7 ee3b 0275 7c3b 701f 6b3b
00000020: d477 8e3b 964a 0bbc c698 72bc d28a 8abc
00000030: 5bd4 8dbb 4677 85ba 62a7 cbbb 2575 7b3b
00000040: ae6c e03a 0824 2b3c 02be 02bc 2019 28bc
00000050: f8e7 eebb c5e1 19bc 9e4b 58bc 6a67 12bc
00000060: 6002 cabb bb76 0bbc 8797 14bc 923e 05b7
00000070: 34c6 17b7 5759 69b7 7436 e3b6 691e 01b7
00000080: b850 49b7 a002 0db7 2e3b 27b7 313c 7ab7
00000090: 89e2 4f3b 0a6c 1e3b 2b1d 2c3a 89f3 6f3b
000000a0: 33f6 a13b 8632 9cba 5e68 c2b9 a881 b5ba
000000b0: 951b 57b9 1a8d 0180 d7f6 0000 180b 0080
000000c0: b008 0000 52a8 0080 0f19 0080 db74 0080
000000d0: aba2 0000 6bca 0080 639b 53bb 51ed ffbb
000000e0: dec7 ed3b 306b ed3b 9281 c3bc efc1 37bc
000000f0: 4237 b73b 9b93 9dbb e235 3b3b c2ee 90bb
00000100: 5902 3cbb db0b 18bb 4431 c3bb 998e d6bb
00000110: 624f c4bb dcc3 59bb e640 b2bb 56e8 bdbb
00000120: f78c 95ba 65d6 7aba 980f 503a 042c 1fbb
00000130: c623 5ebb f81d fdb9 43cd b2ba b4c7 0bbb
00000140: 0885 bcba 793a 0180 ac22 0100 a806 0080
00000150: 1be1 0000 559e 0000 c239 0080 afbb 0000
00000160: ff12 0080 5453 0180 723a b0bc 92a8 d9bb
00000170: fa2d f3bb b745 deba b783 f4bc 09e6 5ebc
00000180: 2004 a13b 7115 3e3b 79d7 d43b d804 833c
00000190: 39ea 613c df9e 5c38 22e5 963b 9267 aabc
000001a0: 58e6 b13c 0f1a c43a addc 12bc 0e95 efba
000001b0: e804 1b3c ffe7 163c f456 2b3b 9f35 d53a
000001c0: 1839 48ba 2de8 e638 e781 493c 8ced c73a
000001d0: 7546 15b9 1f28 41bc 165c 123c e532 733c
000001e0: aa47 f5bb 950b 3dbc 8006 813b 4452 22bc
000001f0: 52d2 16bc 9fca 723b b33a 583c 8c04 163c
00000200: 42d0 343b 5ed8 683b 6da1 ccbb 92e7 0bbb
00000210: 735a d03b e3b5 30bc 042a 06bc 793b 0180
00000220: 830d 0080 8322 0100 cadf 0080 e9ea 0080
00000230: 0ee7 0180 70a7 0080 8281 0000 0e30 0000
00000240: fa98 adbc bca8 093b a5fb 003a 2381 01bc
00000250: 6953 bdbc 5974 913a fcf1 aa3a 8472 ddbb
00000260: df1e 853b 529d b63a 6c02 09bb a627 a0ba
00000270: 7916 e23a 5632 63ba f288 0abb 5237 28b7
00000280: e723 ff39 6a5a 84ba 786a 9d3a 9735 1e3b
00000290: a0a0 ae3a 9e7b a43a 9760 f93a 2dda 9b3a
000002a0: 316d 22ba ea97 05bb bcb7 2ebb dc12 0100
000002b0: b71a 0100 905f 0100 da24 0100 b22a 0180
000002c0: 27f9 0080 88c4 0000 fbc1 0100 59c2 0000
000002d0: f42b ec3b d79f 253c a2e1 e73b ee9b 5b3b
000002e0: faaf 703b 824a 653c 512a 2439 2d2a 3e3b
000002f0: f2e9 163b 8b3f 0000 4b12 0180 a301 0080
00000300: b8a1 0080 5045 0180 e484 0180 1c2e 0100
00000310: 7ab7 0180 7954 0000 4ce3 0000 14de 0080
00000320: 2ef5 0080 3b6d 0000 e411 0000 e890 0000
00000330: ac96 0080 6f3d 0000 94c3 0000 46e5 523b
00000340: bd09 ddbb bf3b 67bc 49cd a5b9 5b96 87bc
00000350: 7249 3abb 8b17 803b 7975 a2bc 9630 773c
00000360: cb8a 28bb 2fce a7bb 4425 9fbb 21ab 85bb
00000370: 90d7 05bc eb3d 18bc 1f3d efba d2a9 a4bb
00000380: f3ad e5bb 1982 9fbb 581e aabb 8488 2fbb
00000390: 6646 ccbb ba65 0fbc e029 c4bb 38dc 87bb
000003a0: c396 fbbb 8c8e cbbb f149 e03b 129c 1e3c
000003b0: d4cc 8e3c 7ad9 85bb af61 e6ba 844b a2bc
000003c0: d7ab 84bc f4d7 183c 9514 50bc bcce 12bc
000003d0: 769f 14bc 4120 7dbb 1fb5 07bc 8fe5 0cbc
000003e0: 397e 11bb 47e7 43bc 55dc d9bb f3b4 15bb
000003f0: 8814 0180 f8e5 0000 79a4 0000 379d 0080
0.007643499 0.008220517 0.0042208857 0.00896029 0.009091328 0.0072850357 0.003852189 0.0035876893
0.0043477807 -0.008501669 -0.014806932 -0.016911898 -0.0043282933 -0.0010182641 -0.006215022 0.0038369384
0.0017122233 0.010445602 -0.007979872 -0.0102598965 -0.0072908364 -0.009392207 -0.013201622 -0.008935789
-0.006164834 -0.008512194 -0.00906933 -7.941986e-06 -9.046449e-06 -1.3908683e-05 -6.7714664e-06 -7.69608e-06
-1.1999327e-05 -8.404866e-06 -9.9677545e-06 -1.4915176e-05 0.0031720719 0.0024173283 0.00065656257 0.0036613664
0.0049426793 -0.0011916913 -0.00037080323 -0.0013847845 -0.00020514273 -1.42453e-40 8.855e-41 -3.98e-42
3.116e-42 -6.0382e-41 -8.99e-42 -4.192e-41 5.8354e-41 -7.2614e-41 -0.0032288663 -0.0078102727
0.007256492 0.0072454438 -0.023865495 -0.011215671 0.005591304 -0.0048088557 0.0028566052 -0.0044229934
-0.0028687923 -0.0023200426 -0.0059568007 -0.0065477607 -0.0059909085 -0.0033228314 -0.0054398654 -0.005795519
-0.0011409809 -0.00095686904 0.0007936894 -0.002428771 -0.0033895834 -0.0004827825 -0.0013641495 -0.002132875
-0.0014382908 -1.12812e-40 1.04273e-40 -2.388e-42 8.0753e-41 5.6799e-41 -2.072e-41 6.7328e-41
-6.815e-42 -1.21728e-40 -0.021512244 -0.0066424096 -0.0074212523 -0.0016958033 -0.029847963 -0.013604649
0.004913822 0.002900448 0.006495413 0.01599352 0.013788753 5.2600048e-05 0.0046049515 -0.02080134
0.021716282 0.0014961379 -0.008963746 -0.0018278675 0.009461619 0.009210586 0.0026144357 0.0016266591
-0.0007637902 0.00011010501 0.012299038 0.001525329 -0.00014235995 -0.011789351 0.008933088 0.014843677
-0.0074853497 -0.011538406 0.0039375424 -0.009907309 -0.009205418 0.003704704 0.013197589 0.0091563575
0.0027589952 0.0035529356 -0.0062448294 -0.0021347743 0.0063584386 -0.010785553 -0.008188728 -1.1317e-40
-4.847e-42 1.04216e-40 -8.028e-41 -8.427e-41 -1.74722e-40 -6.0065e-41 4.6459e-41 1.7239e-41
-0.021191109 0.0021005115 0.00049203105 -0.007904324 -0.023111062 0.0011097296 0.0013042088 -0.006758036
0.004062518 0.0013932383 -0.0020905985 -0.0012218847 0.0017249129 -0.00086668634 -0.0021138755 -1.0026461e-05
0.0004866414 -0.0010097746 0.001200988 0.0024140829 0.0013323016 0.0012549048 0.0019025978 0.0011890583
-0.00061960804 -0.0020384737 -0.0026659807 9.8601e-41 1.01419e-40 1.26117e-40 1.05055e-40 -1.07152e-40
-8.9379e-41 7.0502e-41 1.61423e-40 6.9719e-41 0.007207388 0.01010891 0.007076458 0.003350969
0.0036725984 0.013994815 0.00015656023 0.0029016838 0.0023027626 2.2795e-41 -9.8398e-41 -5.87e-43
-5.8014e-41 -1.167e-40 -1.39508e-40 1.08376e-40 -1.57654e-40 3.0303e-41 8.1539e-41 -7.9667e-41
-8.7954e-41 3.9185e-41 6.418e-42 5.1983e-41 -5.4051e-41 2.2038e-41 7.016e-41 0.0032180115
-0.0067455457 -0.014113366 -0.00031624202 -0.016551187 -0.0028425124 0.0039090565 -0.019831406 0.015087267
-0.0025717493 -0.0051210145 -0.0048567373 -0.004079238 -0.00816907 -0.009292106 -0.0018252468 -0.005025127
-0.0070092618 -0.004867804 -0.0051916055 -0.002678425 -0.006233978 -0.008752281 -0.005986437 -0.004146125
-0.0076778843 -0.0062120613 0.006844752 0.009680765 0.017431654 -0.004084763 -0.0017576719 -0.0198114
-0.01619522 0.009328831 -0.01270022 -0.008960422 -0.009071222 -0.003862396 -0.008282929 -0.008599653
-0.0022200479 -0.011956996 -0.00664858 -0.002284345 -9.9201e-41 8.2497e-41 5.9002e-41 -5.6398e-41
